model & ai/models/rul_gru_normalized.pth (torch, 158069 bytes, 9 tensors)

gru.weight_ih_l0 f4 [192, 4]
0.05255453 0.018796219 -0.08445022 -0.03257642 0.12000365 -0.04311623 -0.07986522 0.10228304
0.054587767 0.111545414 -0.07874343 -0.11964835 0.106031924 0.10906333 0.080035366 0.10993176
0.022802059 -0.008183557 -0.091999665 -0.03002591 0.06581815 -0.0071312557 -0.055551115 -0.033912644
0.11018491 -0.117528945 -0.099371426 0.032512628 -0.07473168 0.037884574 -0.03670536 -0.11235419
-0.0666484 -0.013976163 -0.05576142 -0.061485443 0.066921726 -0.08916065 -0.0657769 -0.03391664
-0.03760175 -0.07719907 -0.09546499 -0.047298633 0.051248565 0.1678867 -0.07730273 0.083936304
0.026225328 0.011673222 0.085963175 0.06941445 0.13762678 0.07158105 0.03333755 -0.038811155
-0.031709503 -0.034006372 0.1567904 0.029395467 -0.072355606 0.109433524 -0.09990196 -0.11723693
0.046326727 -0.06176784 -0.0010737962 -0.10295719 -0.0696116 0.0055329744 0.06516708 -0.11196566
-0.013587998 -0.102405906 -0.012168406 0.09856965 -0.112294726 0.08078701 0.02486257 -0.08880092
-0.09958219 -0.042409733 0.046202555 -0.084894456 -0.10619622 0.07486862 -0.03745239 0.04737473
0.07608281 0.060322933 -0.04515981 0.12081845 -0.092274636 0.09037678 -0.034940306 0.045780625
-0.0170474 0.08604906 0.02650821 0.05215943 -0.08534185 -0.03289924 -0.10397732 -0.0050401106
0.047069915 0.09901527 -0.05290934 -0.03491994 0.08294846 0.106403634 0.04778327 0.022601934
0.11443321 -0.07061129 0.0136744995 0.061805982 -0.11260174 -0.08942842 0.05684319 -0.017512146
0.061039336 -0.12969635 -0.034053095 -0.06015929 0.10203569 0.03884569 0.050689247 0.105411716
0.1292847 0.1640192 -0.021091754 0.08625562 -0.07323191 -0.113482535 0.022115286 -0.031564634
0.06946824 -0.050902452 -0.019099748 0.07897724 0.024559174 -0.13078158 0.069958985 -0.11927735
-0.1128143 -0.04845826 -0.008486642 -0.05400194 -0.10999918 -0.048008867 -0.040122163 -0.023151744
0.039290834 -0.04532569 0.11395376 -0.076699644 0.1280196 -0.027639126 -0.032786347 0.04721317
-0.065900244 0.036624793 -0.03754903 -0.028464038 0.0005711546 0.03818063 -0.07146605 0.06343121
-0.05321189 0.07627432 -0.08752407 0.107125625 0.051490825 0.038051803 0.093873106 0.10010278
0.03171628 -0.013205956 -0.012992076 0.08826647 -0.0023771408 0.08230113 -0.0274814 -0.102470815
0.055714402 0.059689026 0.019527651 -0.07846253 -0.06632373 -0.079699695 0.08616299 0.007830077
-0.1017198 -0.06539202 0.042759504 -0.0539945 0.045298282 -0.0099218795 -0.012544153 -0.06642923
0.024974471 -0.081274666 0.049532264 0.003229351 0.08530242 -0.11780096 -0.064783625 0.074745186
-0.023339955 -0.0312715 -0.037917245 -0.0384252 0.007014685 0.049927685 -0.026603468 -0.11630962
-0.08622634 -0.00858829 -0.001529089 -0.05973395 -0.01456879 0.11717028 0.059642956 0.11995692
-0.059870236 0.09464019 0.15330501 0.040525846 -0.09231677 -0.07739093 0.09579917 0.02912802
-0.023687774 0.078720324 -0.15143496 -0.10032052 -0.011824727 0.032900985 0.05626683 0.067294925
0.024306662 -0.1047418 0.03428451 -0.09234913 -0.11015036 -0.07945562 0.03243294 -0.04521933
0.09831764 -0.056296036 -0.110119425 0.019766957 -0.0072133183 0.0009744384 0.009925636 -0.04090959
00000000: 6b43 573d 87fa 993c 3df4 acbd da6e 05bd
00000010: 79c4 f53d a59a 30bd 6090 a3bd c579 d13d
00000020: 6c97 5f3d ec71 e43d 3c44 a1bd 320a f5bd
00000030: 4427 d93d 985c df3d 95e9 a33d e723 e13d
00000040: 62cb ba3c 5314 06bc 526a bcbd e6f8 f5bc
00000050: abcb 863d 4fad e9bb 9189 63bd fce7 0abd
00000060: a0a8 e13d 04b3 f0bd 3f83 cbbd f62b 053d
00000070: ec0c 99bd db2c 1b3d 5c58 16bd f419 e6bd
00000080: f57e 88bd 47fc 64bc 1666 64bd 29d8 7bbd
00000090: 420e 893d dc99 b6bd 0ab6 86bd 2dec 0abd
000000a0: 4b04 1abd 8c1a 9ebd 2683 c3bd 36bc 41bd
000000b0: 04ea 513d 7eea 2b3e e550 9ebd cce6 ab3d
000000c0: 80d6 d63c 0b41 3f3c 760d b03d 2a29 8e3d
000000d0: 09ee 0c3e 1699 923d f48c 083d 72f8 1ebd
000000e0: d3e1 01bd 444a 0bbd aa8d 203e c3ce f03c
000000f0: 2d2f 94bd af1e e03d 6699 ccbd ea19 f0bd
00000100: 18c1 3d3d 4600 7dbd 9fbe 8cba 38db d2bd
00000110: 8790 8ebd f44d b53b 5176 853d 404e e5bd
00000120: 32a0 5ebc 30ba d1bd fe5d 47bc e2de c93d
00000130: c7fa e5bd a973 a53d 97ac cb3c 42dd b5bd
00000140: bff1 cbbd d4b5 2dbd e43e 3d3d 25dd adbd
00000150: 677d d9bd b854 993d ad67 19bd 010c 423d
00000160: 4ed1 9b3d 2e15 773d 7ef9 38bd aa6f f73d
00000170: 7cfa bcbd 7617 b93d 911d 0fbd 7784 3b3d
00000180: fda6 8bbc 7d3a b03d bf27 d93c 20a5 553d
00000190: b5c7 aebd 5ac1 06bd 10f2 d4bd 8327 a5bb
000001a0: 62cc 403d 85c8 ca3d 77b7 58bd 3608 0fbd
000001b0: e2e0 a93d 26ea d93d 64b8 433d b127 b93c
000001c0: f55b ea3d a79c 90bd 020b 603c 4528 7d3d
000001d0: be9b e6bd 3f26 b7bd 68d4 683d a275 8fbc
000001e0: 6204 7a3d 1fcf 04be 427b 0bbd 9669 76bd
000001f0: 16f8 d03d a91c 1f3d 879f 4f3d 19e2 d73d
00000200: 3563 043e a6f4 273e 9dc8 acbc c9a6 b03d
00000210: 9dfa 95bd 8869 e8bd 1e2b b53c eb49 01bd
00000220: 5d45 8e3d 177f 50bd 1377 9cbc d2be a13d
00000230: 5230 c93c 9beb 05be a846 8f3d af47 f4bd
00000240: 2f0b e7bd 2b7c 46bd 8e0b 0bbc 2331 5dbd
00000250: 4047 e1bd f2a4 44bd 2357 24bd baa8 bdbc
00000260: 6def 203d 6ea7 39bd 9760 e93d b414 9dbd
00000270: 9217 033e 736b e2bc fa4a 06bd 9962 413d
00000280: b5f6 86bd e103 163d 03cd 19bd 6a2d e9bc
00000290: 89b9 153a 4b63 1c3d cb5c 92bd 39e8 813d
000002a0: b6f4 59bd b635 9c3d d23f b3bd ae64 db3d
000002b0: 0be8 523d 35dc 1b3d 8b40 c03d b002 cd3d
000002c0: eee8 013d cb5d 58bc b7dc 54bc 0dc5 b43d
000002d0: cec9 1bbb 7f8d a83d ac20 e1bc 38dc d1bd
000002e0: c934 643d 7b7c 743d 74f8 9f3c f7b0 a0bd
000002f0: bcd4 87bd 9839 a3bd 3976 b03d b949 003c
00000300: 7852 d0bd 40ec 85bd 9724 2f3d 5629 5dbd
00000310: b18a 393d 618f 22bc fe85 4dbc 0c0c 88bd
00000320: 4397 cc3c 5573 a6bd 58e2 4a3d 85a3 533b
00000330: 09b3 ae3d a141 f1bd 47ad 84bd 0114 993d
00000340: 6f33 bfbc 8b16 00bd 1d4f 1bbd be63 1dbd
00000350: 71db e53b f980 4c3d 84ef d9bc bd33 eebd
00000360: 6f97 b0bd e6b5 0cbc b66b c8ba 96ab 74bd
00000370: efb1 6ebc f9f6 ef3d 2c4c 743d f9ab f53d
00000380: 7e3a 75bd b7d2 c13d fdfb 1c3e 6efe 253d
00000390: 9310 bdbd 237f 9ebd 5b32 c43d e39d ee3c
000003a0: dd0c c2bc 1f38 a13d c411 1bbe d874 cdbd
000003b0: 80bc 41bc 2fc3 063d 0c78 663d ecd1 893d
000003c0: c41e c73c de82 d6bd ea6d 0c3d 8a21 bdbd
000003d0: 8396 e1bd a1b9 a2bd 67d8 043d e737 39bd
000003e0: c25a c93d ac96 66bd 4b86 e1bd 50ee a13c
000003f0: b35d ecbb 7471 7f3a 239f 223c d090 27bd

gru.weight_hh_l0 f4 [192, 64]
-0.05598575 0.058808044 -0.087285265 0.011040285 -0.11938164 0.016018182 -0.115582824 0.030040994
0.016106337 0.028643265 0.05691497 0.006837249 0.100205526 -0.081499234 0.09079303 -0.10134448
0.06461626 0.08590397 -0.06337145 -0.07069278 -0.09309496 0.036411926 0.073515326 0.10705562
0.027172476 0.076214254 -0.027693048 0.07149114 0.10151437 0.10074648 0.05511388 -0.10924935
0.085562944 0.047536314 0.028859794 0.1124658 0.03791204 0.028552726 0.11658466 -0.059717298
-0.08948186 0.11466767 -0.11876935 0.08449072 0.079156 0.043606862 -0.055444986 -0.06605981
0.04452896 0.10024808 -0.035552144 0.06611137 -0.076349705 0.09791227 -0.013395339 -0.07059555
0.003987655 0.038340002 0.0043105036 0.074736685 0.0021836162 0.021698982 0.08577113 0.042170167
-0.1057837 0.07476176 -0.07040562 -0.08399877 0.044052273 -0.07627654 0.1146463 -0.11228047
0.0038846731 -0.11204569 -0.08730914 -0.08616124 0.0015318841 -0.015243292 0.03676638 -0.039455682
0.06225735 0.09057294 -0.029311419 0.098644465 -0.05976054 -0.02871932 -0.008006394 -0.10091686
-0.107246116 -0.035110876 0.08795047 -0.034056887 -0.017615601 -0.061381996 0.10200037 -0.048906013
-0.016330272 -0.013313472 0.11048478 -0.01882045 -0.07638854 0.058971778 -0.05230835 0.02229534
0.105760336 0.027399108 -0.062239498 -0.029829979 -0.008769721 -0.054019332 -0.05244361 0.06007138
-0.050381407 0.042971015 -0.11199653 0.053168222 0.100354135 -0.016217962 0.11803813 0.113507956
0.005425811 -0.09966007 0.11882649 -0.0360976 0.09934898 0.023299947 -0.03301628 0.059426546
0.11750141 0.004326597 0.021431923 -0.009940103 0.07120876 -0.090016976 0.05918686 0.10800175
-0.06122428 0.002549082 0.069646984 -0.01741001 0.012444869 0.0097953975 0.03858736 0.040339217
0.12131773 -0.03680116 -0.064907044 0.12210153 0.07383123 -0.08133328 -0.08533399 -0.029705524
-0.112507224 0.03146866 0.10483366 0.037289917 -0.12090446 0.07481144 -0.09473875 0.064252004
0.017401442 0.05273579 -0.0932854 0.054822847 0.06628089 0.07155459 0.0051879436 0.018336654
-0.10671334 -0.010141298 0.013072997 0.051890746 -0.0019705296 0.10867916 0.08065365 0.009689778
-0.049194917 -0.009477615 -0.03694865 -0.060737267 -0.08257851 0.07251671 0.03258735 -0.07605617
0.010482699 -0.0645732 -0.050226018 -0.06830016 0.12454483 -0.067028955 0.024339214 0.05908127
0.05789888 -0.08298594 -0.0048796237 -0.10744512 0.042600185 0.09185666 0.060398415 0.008379608
0.10127522 -0.0019104183 0.023863181 -0.054380894 0.0031383187 -0.026968136 -0.10893971 -0.028409481
-0.048515067 0.024402857 -0.024253637 0.09885378 0.079984054 -0.08305766 0.015392616 0.10054979
-0.04853505 -0.11256701 0.12261529 0.09246652 -0.09539729 0.03712915 -0.04517746 0.093516394
-0.09627725 -0.09810664 -0.11169168 0.010961339 0.10011089 -0.090485334 0.043393075 -0.101231694
0.0028339773 -0.08340864 -0.069861665 0.09057234 -0.03371781 0.10966818 -0.020485386 0.04630336
0.055226445 0.08749768 -0.110482335 0.0075595677 0.07115762 -0.056622744 0.1064855 -0.11487737
0.092558265 -0.020191252 -0.03683366 -0.09212968 0.1015777 -0.090068206 -0.1123618 -0.011798874
00000000: 5051 65bd b4e0 703d 9ec2 b2bd 50e2 343c
00000010: 5c7e f4bd 9038 833c b0b6 ecbd 8818 f63c
00000020: 70f1 833c 48a5 ea3c ac1f 693d 000b e03b
00000030: 8e38 cd3d 12e9 a6bd b2f1 b93d b28d cfbd
00000040: 8855 843d 6cee af3d e4c8 81bd 60c7 90bd
00000050: 92a8 bebd ac24 153d 348f 963d fa3f db3d
00000060: d098 de3c 3816 9c3d 88dc e2bc f269 923d
00000070: c4e6 cf3d 2c54 ce3d 18bf 613d 20be dfbd
00000080: a03b af3d 70b5 423d 606b ec3c 7854 e63d
00000090: a849 1b3d 68e7 e93c f0c3 ee3d 209a 74bd
000000a0: 4442 b7bd e2d6 ea3d 583d f3bd 7809 ad3d
000000b0: 8a1c a23d 1c9d 323d 481a 63bd 5e4a 87bd
000000c0: 0064 363d de4e cd3d 209f 11bd 6665 873d
000000d0: 3c5d 9cbd 3a86 c83d 2078 5bbc 6694 90bd
000000e0: e0aa 823b 680a 1d3d 203f 8d3b 8c0f 993d
000000f0: 001b 0f3b 10c2 b13c c6a8 af3d a0ba 2c3d
00000100: 20a5 d8bd b21c 993d d230 90bd 8c07 acbd
00000110: 2870 343d e036 9cbd aecb ea3d 4ef3 e5bd
00000120: 0096 7e3b 3678 e5bd 22cf b2bd 4e75 b0bd
00000130: 80c9 c83a 00bf 79bc 5898 163d 489c 21bd
00000140: 9001 7f3d 4e7e b93d 801e f0bc 1c06 ca3d
00000150: 78c7 74bd c844 ebbc 402d 03bc 80ad cebd
00000160: daa3 dbbd 6cd0 0fbd 601f b43d 3c7f 0bbd
00000170: 984e 90bc b06b 7bbd 92e5 d03d ac51 48bd
00000180: 10c7 85bc c020 5abc d845 e23d 582d 9abc
00000190: 9871 9cbd 648c 713d 4841 56bd b8a4 b63c
000001a0: e098 d83d 1874 e03c d8ee 7ebd 005e f4bc
000001b0: e0ae 0fbc 6043 5dbd 1ccf 56bd 680d 763d
000001c0: bc5c 4ebd 6002 303d 705e e5bd ecc6 593d
000001d0: 7886 cd3d 88db 84bc fabd f13d dc76 e83d
000001e0: 00cb b13b 941a ccbd 4e5b f33d 14db 13bd
000001f0: 7a77 cb3d 88df be3c 143c 07bd 4069 733d
00000200: 94a4 f03d 20c6 8d3b 0092 af3c d0db 22bc
00000210: e6d5 913d d25a b8bd ec6d 723d 0630 dd3d
00000220: 50c6 7abd 800e 273b 14a3 8e3d 709f 8ebc
00000230: 90e5 4b3c e07c 203c c80d 1e3d bc3a 253d
00000240: 6e75 f83d d0bc 16bd fced 84bd 5e10 fa3d
00000250: d434 973d 1092 a6bd 96c3 aebd 0059 f3bc
00000260: 306a e6bd 48e5 003d 08b3 d63d 50bd 183d
00000270: c29c f7bd be36 993d 6406 c2bd 8e96 833d
00000280: 788d 8e3c 7c01 583d 6a0c bfbd ec8d 603d
00000290: 46be 873d 368b 923d a0ff a93b c036 963c
000002a0: 868c dabd b027 26bc 2030 563c 648b 543d
000002b0: 0024 01bb 2e93 de3d be2d a53d e0c1 1e3c
000002c0: 9c80 49bd 0048 1bbc 7857 17bd a4c7 78bd
000002d0: ec1e a9bd a483 943d 507a 053d 56c3 9bbd
000002e0: a0bf 2b3c f43e 84bd ccb9 4dbd f4e0 8bbd
000002f0: 5c11 ff3d 7a46 89bd 0863 c73c 34ff 713d
00000300: 6027 6d3d 88f4 a9bd 40e5 9fbb 300c dcbd
00000310: 887d 2e3d 581f bc3d 5464 773d a04a 093c
00000320: 6269 cf3d 0067 faba b87c c33c 80be 5ebd
00000330: 40ac 4d3b 48ec dcbc c81b dfbd 00bb e8bc
00000340: bcb7 46bd 80e8 c73c 90af c6bc da73 ca3d
00000350: aece a33d 221a aabd 5031 7c3c 0ced cd3d
00000360: b0cc 46bd 8889 e6bd ba1d fb3d 165f bd3d
00000370: a85f c3bd bc14 183d 000c 39bd 8685 bf3d
00000380: 022d c5bd 22ec c8bd 9cbe e4bd 3097 333c
00000390: f006 cd3d 6050 b9bd f0bc 313d 9052 cfbd
000003a0: 40ba 393b 26d2 aabd a213 8fbd fe7d b93d
000003b0: b01b 0abd b699 e03d f8d0 a7bc 98a8 3d3d
000003c0: 2035 623d fc31 b33d 9044 e2bd 40b6 f73b
000003d0: 16bb 913d 40ed 67bd 1215 da3d d444 ebbd
000003e0: 308f bd3d 2068 a5bc e4de 16bd 7cae bcbd
000003f0: f807 d03d ae75 b8bd f21d e6bd 1050 41bc

gru.bias_ih_l0 f4 [192]
-0.023629053 -0.09106854 0.106000945 -0.12062192 -0.12205032 0.07935909 0.0673524 0.08356044
-0.09561859 -0.070524946 -0.048703525 0.1567277 -0.026433604 -0.07800839 0.071005955 -0.020560212
0.004852518 -0.00042816636 -0.063228935 0.07691451 0.027183764 -0.007070262 -0.041886132 0.020458607
0.016069796 -0.09734568 -0.07555565 -0.06399102 -0.1054216 -0.02769038 -0.06713488 -0.05351717
0.16015701 0.0949926 -0.08055242 -0.113492526 -0.031778388 -0.046096504 -0.10427246 0.10677682
0.09844623 0.11473405 -0.08843395 0.08954721 0.028143343 0.039694477 -0.060672585 0.13252561
-0.08554824 -0.034487925 0.00813928 -0.1024379 -0.0927061 0.11775997 0.0312018 0.08308664
-0.11029641 0.033634 0.06074902 -0.009870207 0.04128962 -0.07275311 -0.052062154 0.08773402
-0.099257134 0.012498393 0.09254012 0.05544682 0.0926914 0.013426842 -0.017778195 -0.13155267
0.030305672 0.07005366 0.01031263 -0.112229735 -0.019970795 0.022208987 -0.109416515 -0.005648431
0.09524156 -0.0748467 0.00829206 -0.12282656 0.0031069336 0.10189588 0.0020558292 -0.11564423
-0.091572665 0.08831628 -0.10662543 0.13250072 0.04733607 0.011534154 0.13519654 -0.0954283
0.12511562 0.066561155 -0.023239061 -0.13259605 0.04208492 0.118169375 0.12749498 0.08499583
0.08314695 -0.07253612 0.0670486 -0.057794448 0.15783618 -0.067515396 0.008669087 0.095588736
-0.09594594 0.06787288 -0.019600455 -0.0861663 -0.016051276 0.001505084 0.0019060225 0.04906317
-0.07141228 -0.082934596 0.10531919 0.18124953 0.15244195 0.1536106 0.15767694 0.14346856
-0.015700266 -0.02068003 0.022743266 -0.08509868 -0.013970063 0.03066444 0.012678914 0.04863783
-0.08184861 -0.059816547 -0.025043318 -0.13315186 -0.07102665 0.12691744 -0.13892367 0.032340635
0.08862152 0.059963286 -0.050907876 -0.015998825 -0.14086857 0.06505302 0.09032647 0.08761022
-0.082404144 0.0728751 0.13521545 -0.17679669 0.09335957 0.043061055 -0.086365536 -0.10353795
-0.04930931 0.09925737 -0.044770867 0.084735624 -0.032460354 -0.053186186 -0.072619885 -0.089263916
-0.09150521 -0.029310543 -0.083364435 -0.046440553 0.056838978 -0.10466585 0.019270215 -0.11563715
-0.12374479 0.06544941 -0.068894416 0.035364307 0.06959279 0.12801287 -0.016169455 0.03735899
-0.02589796 0.110759825 0.088464 -0.035640173 0.081394106 -0.005298271 0.06463713 -0.05529781
00000000: b791 c1bc 2582 babd 0617 d93d a008 f7bd
00000010: 85f5 f9bd 0587 a23d 0ef0 893d bc21 ab3d
00000020: aed3 c3bd 626f 90bd 597d 47bd 3a7d 203e
00000030: 498b d8bc ddc2 9fbd 926b 913d e46d a8bc
00000040: df01 9f3b 847b e0b9 2c7e 81bd 5b85 9d3d
00000050: 7cb0 de3c a8ad e7bb cb90 2bbd cf98 a73c
00000060: cea4 833c 2c5d c7bd ecbc 9abd b90d 83bd
00000070: 48e7 d7bd f0d6 e2bc 037e 89bd d234 5bbd
00000080: 3300 243e 7b8b c23d abf8 a4bd c56e e8bd
00000090: 0e2a 02bd b0cf 3cbd cd8c d5bd cead da3d
000000a0: 2d9e c93d b0f9 ea3d dc1c b5bd 8764 b73d
000000b0: de8c e63c ad96 223d d183 78bd cbb4 073e
000000c0: ea33 afbd 3643 0dbd 9d5a 053c f6ca d1bd
000000d0: b2dc bdbd 242c f13d eb9a ff3c 5429 aa3d
000000e0: 16e3 e1bd cec3 093d f7d3 783d a6b6 21bc
000000f0: 4e1f 293d 95ff 94bd 203f 55bd e5ad b33d
00000100: 5347 cbbd 0fc6 4c3c ad85 bd3d 341c 633d
00000110: fdd4 bd3d 42fc 5b3c 94a3 91bc beb5 06be
00000120: 9a43 f83c 4b78 8f3d 4ef6 283c b4d8 e5bd
00000130: cb99 a3bc 9fef b53c c415 e0bd 7916 b9bb
00000140: 020e c33d 3a49 99bd 6cdb 073c 7e8c fbbd
00000150: b29d 4b3b caae d03d 17bb 063b e2d6 ecbd
00000160: 738a bbbd 2adf b43d 6f5e dabd 45ae 073e
00000170: 78e3 413d c0f9 3c3c f670 0a3e ea6f c3bd
00000180: 4f1e 003e 3751 883d d85f bebc 42c7 07be
00000190: 3d61 2c3d c902 f23d 0b8e 023e 4b12 ae3d
000001a0: f348 aa3d d18d 94bd c750 893d dfb9 6cbd
000001b0: cf9f 213e 8345 8abd c908 0e3c 07c4 c33d
000001c0: 4e7f c4bd f000 8b3d 2291 a0bc f577 b0bd
000001d0: f77d 83bc 3d46 c53a 81d3 f93a 76f6 483d
000001e0: 9a40 92bd 9dd9 a9bd 96b1 d73d 7a99 393e
000001f0: be19 1c3e 194c 1d3e 1076 213e 6ce9 123e
00000200: d89d 80bc 2b69 a9bc 1650 ba3c 3748 aebd
00000210: b1e2 64bc fe33 fb3c 38bb 4f3c 7638 473d
00000220: 3ea0 a7bd 3202 75bd a527 cdbc f658 08be
00000230: 6c76 91bd a5f6 013e 0242 0ebe 9d77 043d
00000240: 337f b53d 109c 753d c784 50bd f80f 83bc
00000250: da3f 10be 853a 853d 16fd b83d fd6c b33d
00000260: 81c3 a8bd 8a3f 953d eb75 0a3e 310a 35be
00000270: 4d33 bf3d ca60 303d 6ae0 b0bd b40b d4bd
00000280: 8ff8 49bd 7347 cb3d a861 37bd df89 ad3d
00000290: 26f5 04bd c2d9 59bd bcb9 94bd 00d0 b6bd
000002a0: 1567 bbbd aa1c f0bc f9ba aabd 7338 3ebd
000002b0: fdcf 683d 0d5b d6bd 92dc 9d3c 2cd3 ecbd
000002c0: e96d fdbd 570a 863d 8418 8dbd 2ada 103d
000002d0: aa86 8e3d ce15 033e ce75 84bc be05 193d
000002e0: f527 d4bc 0cd6 e23d 9d2c b53d 6efb 11bd
000002f0: f4b1 a63d 1e9d adbb 7960 843d f57f 62bd

gru.bias_hh_l0 f4 [192]
-0.051682647 -0.04702586 0.06129277 -0.0035962297 0.034481686 -0.12983114 0.055189338 -0.11136289
-0.00811848 0.10297036 0.06584047 0.08459917 0.025602711 0.044702176 -0.01327432 -0.060158007
0.097658046 -0.0028133248 -0.01594611 -0.06567056 -0.04834295 0.06347653 0.047137607 0.0070566917
-0.031868905 -0.0059453174 -0.098397925 0.12518765 0.05304408 -0.06196179 -0.0074560214 -0.0063153296
0.15945573 0.02218006 0.084728144 -0.003116871 0.115189 0.102932714 -0.10816982 0.07346712
0.091053076 -0.07128845 -0.037559915 0.050598163 0.015059308 0.011300081 -0.009122936 -0.094540864
-0.032972615 0.08621022 0.037145227 -0.07309374 -0.0262735 0.015555288 0.032468725 0.06380672
0.13143796 -0.05429275 -0.026116874 -0.052928917 -0.12163539 0.06923949 -0.043285213 0.04824769
-0.046996586 -0.08904465 0.09932861 0.0654313 0.005036632 -0.042015456 0.19128348 -0.13057083
-0.090874314 0.06378648 0.02632323 0.09903723 0.0790621 0.11838886 0.057246353 -0.15663607
0.037795596 0.072807655 0.116833225 -0.12724368 0.02929188 -0.074802816 -0.059019726 0.05636285
-0.09856815 -0.03139778 -0.12028979 0.048661064 -0.09010728 -0.006188331 0.1370872 -0.12974335
0.09171905 0.07452902 0.07807422 -0.12566237 0.10371425 -0.09048877 0.1560942 0.002426367
-0.060721863 -0.075258054 0.08896394 0.020070413 -0.06625514 0.066390656 0.09650692 -0.016397772
-0.10961172 0.0032878155 -0.00088873075 0.062342577 -0.095064424 -0.046394262 -0.123118095 0.10258177
-0.01971879 0.0845448 0.014951498 0.15439908 0.09554608 0.16087852 0.08665973 0.12867601
-0.013520298 0.059690904 0.031834695 0.040506188 0.023721337 -0.07928406 -0.0032567657 -0.0007747241
0.035050783 0.010828995 -0.054976903 -0.1348746 0.07393753 0.05094901 -0.042724684 0.08074887
-0.11602626 0.032551188 -0.0022106087 -0.06529987 -0.11710401 0.03449842 -0.08689879 -0.1240144
-0.06881112 0.018783858 -0.070690125 -0.15922387 -0.10835313 -0.040597986 -0.08612227 -0.0986554
0.1316402 0.047785763 -0.05745918 0.032967407 0.09481259 -0.009425854 -0.11746654 -0.041533075
-0.003322796 0.12702264 -0.042713407 0.10059177 -0.00010535396 -0.0694482 -0.03132976 -0.14031845
-0.12114536 0.036105163 0.043120153 0.0072345594 -0.079756506 -0.0745776 -0.010196189 -0.0027985617
-0.10661114 0.12221429 -0.04512437 -0.08366131 0.0068667587 0.065411985 0.013071126 -0.06987149
00000000: 2fb1 53bd 309e 40bd 210e 7b3d b9ae 6bbb
00000010: ab3c 0d3d 74f2 04be 370e 623d 3a12 e4bd
00000020: 6003 05bc 20e2 d23d 5ed7 863d 5442 ad3d
00000030: c7bc d13c a119 373d 897c 59bc 3e68 76bd
00000040: f100 c83d c25f 38bb 6ba1 82bc 497e 86bd
00000050: 4203 46bd fcff 813d 5d13 413d d23b e73b
00000060: f888 02bd f0d0 c2bb da84 c9bd 3131 003e
00000070: c044 593d a5cb 7dbd a451 f4bb d3f0 cebb
00000080: 5d48 233e f5b2 b53c f385 ad3d 6b44 4cbb
00000090: 36e8 eb3d 63ce d23d 2388 ddbd ee75 963d
000000a0: 097a ba3d aeff 91bd 6dd8 19bd 0540 4f3d
000000b0: 51bb 763c fa23 393c 5e78 15bc a49e c1bd
000000c0: 4b0e 07bd fc8e b03d 9825 183d 2cb2 95bd
000000d0: 863b d7bc 9bdb 7e3c edfd 043d 19ad 823d
000000e0: ac97 063e 1362 5ebd 0ef3 d5bc fecb 58bd
000000f0: fa1b f9bd 6fcd 8d3d d64b 31bd 5f9f 453d
00000100: 7e7f 40bd 0b5d b6bd cc6c cb3d d800 863d
00000110: 550a a53b 6618 2cbd d1df 433e 5cb4 05be
00000120: 501c babd 7ca2 823d d0a3 d73c 08d4 ca3d
00000130: 4feb a13d dc75 f23d 277b 6a3d 3565 20be
00000140: 8ecf 1a3d 2e1c 953d 4246 ef3d 2b4c 02be
00000150: 86f5 ef3c 3832 99bd abbe 71bd bbdc 663d
00000160: 19de c9bd f59a 00bd 7e5a f6bd d350 473d
00000170: 2a8a b8bd 7cc7 cabb 9660 0c3e 71db 04be
00000180: 33d7 bb3d aca2 983d 60e5 9f3d a3ad 00be
00000190: 2368 d43d 2d52 b9bd 28d7 1f3e af03 1f3b
000001a0: 7db7 78bd e520 9abd ba32 b63d b56a a43c
000001b0: c6b0 87bd d3f7 873d 6ca5 c53d 9f54 86bc
000001c0: 1c7c e0bd 6478 573b b6f9 68ba ee5a 7f3d
000001d0: 23b1 c2bd e907 3ebd 5725 fcbd 6416 d23d
000001e0: 4d89 a1bc d325 ad3d 21f7 743c cb1a 1e3e
000001f0: aaad c33d 57bd 243e a87a b13d a5c3 033e
00000200: 3d84 5dbc 737e 743d 1965 023d d1e9 253d
00000210: 4053 c23c ae5f a2bd 766f 55bb db16 4bba
00000220: 6991 0f3d 196c 313c 762f 61bd 911c 0abe
00000230: 8f6c 973d e9af 503d 1400 2fbd aa5f a53d
00000240: 2d9f edbd 6554 053d dcdf 10bb f0bb 85bd
00000250: 3ad4 efbd 374e 0d3d fef7 b1bd 43fb fdbd
00000260: d8ec 8cbd 9be0 993c fcc5 90bd 950b 23be
00000270: 3fe8 ddbd 134a 26bd df60 b0bd d80b cabd
00000280: b0cc 063e 01bb 433d 515a 6bbd d508 073d
00000290: 1a2d c23d e66e 1abc 4c92 f0bd 961e 2abd
000002a0: 44c3 59bb 3912 023e 41f4 2ebd 0f03 ce3d
000002b0: 7af1 dcb8 dc3a 8ebd a253 00bd a4af 0fbe
000002c0: 0f1b f8bd 02e3 133d c29e 303d e20f ed3b
000002d0: 6157 a3bd 24bc 98bd eb0d 27bc 1368 37bb
000002e0: f156 dabd 7c4b fa3d 55d4 38bd 9f56 abbd
000002f0: 8c02 e13b b8f6 853d 4728 563c c918 8fbd

gru.weight_ih_l1 f4 [192, 64]
0.120440446 0.013753125 0.054021887 -0.014248985 0.07472625 -0.10584053 0.086476296 0.043379012
-0.046009373 0.007937052 0.0863848 0.0866044 0.040023822 0.031936433 -0.02509228 0.12715703
0.0045785187 -0.016975591 -0.06380524 -0.03670097 0.07413082 0.04191698 -0.02620173 -0.11201263
-0.0015496257 0.020249238 0.009440957 -0.040420335 0.12774824 -0.13106662 -0.025729915 0.11048663
-0.09508275 -0.11724843 0.030504713 -0.056376733 -0.09759216 0.119642645 0.07001549 0.038466766
0.083066225 -0.12832898 0.06300038 0.05339163 -0.08258368 -0.052970257 0.10872011 0.078424364
0.022469811 -0.013454092 -0.06322709 -0.017109009 -0.12528747 0.016767444 0.12969626 0.039867412
-0.0027848452 0.022969108 -0.0080911415 -0.007799649 0.048186276 0.024577763 -0.07844779 0.089591436
-0.12334205 0.07972168 0.044769924 -0.06162238 0.086256444 -0.02747368 -0.051872287 -0.0065336237
0.11431608 -0.083494455 -0.065172754 -0.043410424 0.040691793 0.07197228 0.09607575 -0.069466755
0.018550329 0.06298531 -0.103616275 -0.11448707 -0.088958 0.11670553 0.10644152 0.024743302
-0.020042049 0.085596 0.07966185 0.008258462 0.10670108 0.09499705 0.11605403 0.04283732
0.06452594 -0.098052874 -0.07448441 -0.010852091 -0.078742296 -0.05252633 -0.007368361 -0.08310587
0.074277654 0.053205725 0.028716164 0.05370861 0.036706716 -0.055067297 -0.04141691 -0.0777856
-0.061964665 -0.08099393 0.0039952565 -0.039010927 0.13083194 0.05559718 -0.062212512 -0.037609484
0.07788577 -0.111258894 0.06325743 0.091570914 -0.102298446 0.029435987 0.13241681 0.04787666
0.013900239 0.07595541 -0.013324196 0.098001264 -0.12855008 0.040939342 0.06315065 -0.054306626
-0.018039651 -0.03739756 0.105708525 0.09586809 -0.012808708 0.11306916 -0.13078274 0.11248069
-0.13680427 0.12076883 -0.06017467 0.088682786 -0.10727548 0.04869739 0.0365027 0.04504368
-0.023727382 0.12368161 0.08042153 -0.09081489 -0.011878581 -0.10875717 -0.047366522 -0.089740194
-0.03930392 -0.045544747 0.04962733 -0.024645396 0.09942542 0.04990674 -0.06888851 -0.007970959
-0.01677632 -0.09474323 -0.08466984 0.10243571 -0.08289332 0.033490848 -0.050225567 0.064660996
0.06210257 0.053991694 0.035033803 0.0794084 -0.10498874 -0.06650776 0.029418115 0.100597404
-0.060415536 0.06671428 0.12924425 -0.0024706973 -0.05943737 -0.06695669 0.011725983 -0.07850293
0.058475275 -0.028543195 -0.05213389 0.13180847 -0.012539385 0.11994658 0.07414168 0.105353095
-0.04006322 -0.06316891 -0.078051604 0.070723794 -0.0679875 -0.018315623 0.058465783 0.096797116
0.11328 0.1110987 0.078820705 -0.015445395 0.057091724 0.009831255 -0.11420142 -0.0036087257
0.05523521 0.028853612 0.0928917 -0.053149007 -0.019560337 -0.036144648 0.10592498 0.030067243
-0.065136254 0.05656147 -0.09431668 0.114070214 -0.027510786 0.09574573 -0.06202096 0.04669255
0.10325672 -0.014021653 -0.06358432 0.0006720641 -0.069619946 0.023553796 0.010180223 -0.06256136
-0.04699477 0.09881719 0.068534225 0.04010206 0.110933654 -0.0039144037 0.11443889 -0.063567765
-0.032859646 -0.012214934 -0.06251286 0.05218234 -0.07324128 0.06009604 0.048655804 -0.07387098
00000000: 7ba9 f63d ca54 613c 0e46 5d3d 9374 69bc
00000010: 130a 993d ebc2 d8bd 7c1a b13d 31ae 313d
00000020: 5374 3cbd 690a 023c 84ea b03d a65d b13d
00000030: 05f0 233d c7cf 023d 538e cdbc 7435 023e
00000040: 6607 963b 6510 8bbc 52ac 82bd c253 16bd
00000050: e6d1 973d 24b1 2b3d 03a5 d6bc e166 e5bd
00000060: cf1c cbba bbe1 a53c 3eae 1a3c cb8f 25bd
00000070: 6fd0 023e 5436 06be 8bc7 d2bc d046 e23d
00000080: bfba c2bd f21f f0bd 05e5 f93c 4aeb 66bd
00000090: 66de c7bd 3407 f53d 4864 8f3d 548f 1d3d
000000a0: a01e aa3d ac68 03be 5806 813d 2fb1 5a3d
000000b0: a221 a9bd 57f7 58bd a6a8 de3d f49c a03d
000000c0: 9c12 b83c 8d6e 5cbc 347d 81bd 3128 8cbc
000000d0: 5c4b 00be e15b 893c 19cf 043e 034c 233d
000000e0: f381 36bb b629 bc3c b590 04bc 3394 ffbb
000000f0: f95e 453d 4e57 c93c 3ca9 a0bd b77b b73d
00000100: c29a fcbd 1f45 a33d ab60 373d c067 7cbd
00000110: 38a7 b03d 7c10 e1bc 0978 54bd 0218 d6bb
00000120: 8d1e ea3d 24ff aabd 4b79 85bd 21cf 31bd
00000130: 70ac 263d 3466 933d 5dc3 c43d 9644 8ebd
00000140: dcf6 973c 71fe 803d c534 d4bd 3278 eabd
00000150: 9d2f b6bd 4f03 ef3d 03fe d93d 77b2 ca3c
00000160: 392f a4bc f54c af3d c125 a33d 804e 073c
00000170: 1986 da3d d08d c23d bcad ed3d 3076 2f3d
00000180: 2d26 843d f2cf c8bd 488b 98bd f8cc 31bc
00000190: a443 a1bd d925 57bd 4b72 f1bb 6933 aabd
000001a0: e21e 983d 3fee 593d 293e eb3c 8ffd 5b3d
000001b0: c859 163d 3f8e 61bd c7a4 29bd 0f4e 9fbd
000001c0: a9ce 7dbd 25e0 a5bd a4ea 823b ecc9 1fbd
000001d0: cff8 053e deb9 633d 8cd2 7ebd 670c 1abd
000001e0: 9382 9f3d b4db e3bd 1d8d 813d 8889 bb3d
000001f0: d981 d1bd bd23 f13c 4698 073e 511a 443d
00000200: d4bd 633c 838e 9b3d bb4d 5abc e3b4 c83d
00000210: a2a2 03be 03b0 273d 2155 813d a070 5ebd
00000220: e4c7 93bc 2f2e 19bd b67d d83d 7d56 c43d
00000230: 9ddb 51bc ce90 e73d e9eb 05be 475c e63d
00000240: 6b16 0cbe a655 f73d b779 76bd 529f b53d
00000250: 3fb3 dbbd ea76 473d db83 153d b97f 383d
00000260: ed5f c2bc c94c fd3d 0bb4 a43d 28fd b9bd
00000270: 619e 42bc 14bc debd 6603 42bd b5c9 b7bd
00000280: 26fd 20bd 218d 3abd 0746 4b3d 24e5 c9bc
00000290: 8e9f cb3d 036b 4c3d 6b15 8dbd a098 02bc
000002a0: 7e6e 89bc bd08 c2bd 6267 adbd d0c9 d13d
000002b0: f9c3 a9bd b32d 093d 53b9 4dbd fc6c 843d
000002c0: 445f 7e3d 6526 5d3d 9b7f 0f3d dfa0 a23d
000002d0: 5604 d7bd 3835 88bd 42fe f03c 0306 ce3d
000002e0: 4876 77bd 7fa1 883d 9b58 043e 6ceb 21bb
000002f0: 9a74 73bd 9720 89bd 561e 403c 25c6 a0bd
00000300: c583 6f3d 6bd3 e9bc 598a 55bd cdf8 063e
00000310: fe71 4dbc 8da6 f53d 98d7 973d 5dc3 d73d
00000320: 5519 24bd b45e 81bd 85d9 9fbd a3d7 903d
00000330: 083d 8bbd a50a 96bc d179 6f3d 913d c63d
00000340: 58ff e73d b787 e33d c06c a13d af0e 7dbc
00000350: 03d9 693d 4613 213c 6fe2 e9bd 5f80 6cbb
00000360: 513e 623d 695e ec3c 013e be3d c6b2 59bd
00000370: 003d a0bc 690c 14bd 32ef d83d 944f f63c
00000380: 2866 85bd 00ad 673d 1b29 c1bd a59d e93d
00000390: 4d5e e1bc 5616 c43d b109 7ebd b040 3f3d
000003a0: 4278 d33d 13bb 65bc 7f38 82bd 752d 303a
000003b0: e794 8ebd e4f3 c03c f3ca 263c 2c20 80bd
000003c0: 977d 40bd ab60 ca3d ac5b 8c3d 0f42 243d
000003d0: 2f31 e33d 6644 80bb f05e ea3d d12f 82bd
000003e0: d697 06bd 2621 48bc be06 80bd 26bd 553d
000003f0: 86ff 95bd 4427 763d 4f4b 473d ab49 97bd

gru.weight_hh_l1 f4 [192, 64]
-0.06186092 0.050824374 0.078349486 0.029540792 -0.05534084 -0.0795154 -0.029836997 0.074073076
0.05659847 -0.07429467 -0.004040152 0.09098521 -0.07492089 0.06820388 -0.025626972 -0.097944066
0.059203267 0.029304817 -0.013586298 -0.040686414 0.0394935 -0.05716668 0.12069084 0.11182143
-0.04839298 0.082173645 -0.0471953 0.027529925 0.059475943 0.081340134 -0.1116074 0.059492603
-0.10506438 -0.018346861 -0.08535862 -0.07425067 0.05461125 0.08223483 0.045010835 -0.027985051
-0.013255313 0.030897662 0.124114916 -0.07555847 0.003162682 -0.0039980263 0.054559335 0.02710092
-0.053109825 -0.067549154 -0.057619795 -0.096964985 0.06032592 -0.07299435 0.07338835 -0.035683602
-0.06797053 0.108703926 -0.11711386 -0.089432254 -0.075636536 -0.023820072 -0.07334845 0.10400796
-0.100004375 -0.088330135 0.04511483 -0.110229746 0.030689493 0.037872195 -0.040557772 -0.0053185225
0.029207096 -0.11143561 -0.00068306923 0.048996672 -0.06731409 -0.122338176 0.08023195 0.11057894
0.045838743 -0.054787323 0.07670891 0.075480714 -0.09097524 0.05908957 0.07972211 0.010481745
0.016398191 0.12034704 0.024932504 -0.12224744 0.06462595 0.0962033 0.033230364 -0.08161123
0.11776161 0.01284425 -0.04109426 0.044817716 -0.07826163 0.05696696 -0.08206841 0.1226068
-0.015315056 -0.05916837 -0.08157666 0.012817144 0.092272475 0.064974025 -0.036522493 0.119247064
-0.08832954 -0.060528725 -0.030619115 -0.09188345 0.097663045 0.026172847 0.037156105 -0.07613461
-0.12075107 0.046038926 -0.07531838 -0.07279362 -0.012139589 -0.039632365 -0.10160814 -0.063061476
0.10944758 0.058713675 -0.031818464 -0.047742605 -0.049667895 -0.010005131 0.10080168 0.11957635
0.01368095 0.100122616 -0.0953404 0.10585825 -0.04315552 0.045734167 -0.024332345 0.05121164
0.04771796 0.1244884 0.025424436 -0.004073307 0.027891934 0.06790319 0.08913359 0.02375047
0.06761818 0.011271298 0.024456978 -0.0057096034 -0.041068554 0.02672702 -0.086966515 0.12099977
0.008798331 0.008423254 -0.06415312 -0.06765641 -0.02496928 -0.032949254 -0.12359184 0.0041668564
0.10033265 -0.08190566 0.12470144 -0.072232425 0.021719009 -0.032384023 0.018178225 -0.01608333
0.0774302 0.09619853 -0.02551806 0.046562836 0.10635474 -0.055042326 -0.08906807 0.0041543096
0.08105868 -0.007312283 0.12194018 0.09983148 -0.04766524 -0.07241021 -0.0037035793 0.02748239
0.035982445 -0.029632285 0.08888824 0.12276977 -0.0714035 -0.07569316 -0.07269335 0.046935916
-0.086175054 -0.07747775 0.070341915 -0.07901661 -0.030881986 -0.06611271 0.123331055 -0.00887315
-0.019786984 0.11196451 -0.08327165 -0.06666668 0.035759762 -0.049864456 -0.04173322 0.058262005
-0.07176313 0.0338573 -0.0104312 0.05875285 -0.00599733 -0.07719593 -0.048496246 -0.05802034
0.068298906 -0.09432079 0.011846349 -0.056314364 0.10716532 -0.072286665 0.09024075 0.039001465
0.018252805 0.086732835 0.013029352 0.114836425 -0.038667902 -0.06970137 0.04845473 0.011809111
-0.0020001233 -0.035844103 -0.066103265 0.04835686 -0.1117744 0.06058657 -0.10775003 0.027735561
0.017956883 0.039025903 -0.03469509 -0.012741312 0.11377743 -0.12169595 -0.11360952 0.026562244
00000000: e061 7dbd 382d 503d b275 a03d 88ff f13c
00000010: 14ad 62bd f8d8 a2bd b86c f4bc a0b3 973d
00000020: ccd3 673d ce27 98bd 4063 84bb 7456 ba3d
00000030: 2070 99bd 7aae 8b3d a8ef d1bc e696 c8bd
00000040: 207f 723d a810 f03c 1099 5ebc cca6 26bd
00000050: f0c3 213d 9c27 6abd c22c f73d a202 e53d
00000060: b837 46bd a84a a83d dc4f 41bd 7086 e13c
00000070: 0c9d 733d a895 a63d 6c92 e4bd 84ae 733d
00000080: fe2b d7bd 284c 96bc 80d0 aebd bc10 98bd
00000090: 0cb0 5f3d bc6a a83d 485d 383d e840 e5bc
000000a0: d02c 59bc 181d fd3c f62f fe3d 66be 9abd
000000b0: 0045 4f3b e001 83bb 9c79 5f3d c002 de3c
000000c0: b089 59bd 3657 8abd bc02 6cbd 9495 c6bd
000000d0: 5018 773d 107e 95bd a24c 963d f828 12bd
000000e0: 2234 8bbd 2aa0 de3d 64d9 efbd 4228 b7bd
000000f0: 54e7 9abd 5022 c3bc b637 96bd 2002 d53d
00000100: 18cf ccbd 6ee6 b4bd 54ca 383d 22c0 e1bd
00000110: 8868 fb3c e01f 1b3d e81f 26bd 0047 aebb
00000120: b843 ef3c 5a38 e4bd 0010 33ba bcb0 483d
00000130: f8db 89bd 708c fabd a650 a43d 3677 e23d
00000140: 68c1 3b3d ac68 60bd 9019 9d3d a295 9a3d
00000150: 3a51 babd e807 723d 5845 a33d a0bb 2b3c
00000160: 8055 863c 8278 f63d 403f cc3c de5c fabd
00000170: 9c5a 843d 3c06 c53d 901c 083d ca23 a7bd
00000180: 002d f13d b070 523c 7452 28bd c892 373d
00000190: a247 a0bd 3056 693d 7c13 a8bd 4619 fb3d
000001a0: 00ec 7abc 885a 72bd aa11 a7bd 00ff 513c
000001b0: 5af9 bc3d 1a11 853d 9c98 15bd ce37 f43d
000001c0: 1ee6 b4bd f8ec 77bd f0d4 fabc 642d bcbd
000001d0: 9003 c83d 7068 d63c 0031 183d 76ec 9bbd
000001e0: 564c f7bd 5093 3c3d 8640 9abd d214 95bd
000001f0: 20e5 46bc 8c55 22bd ee17 d0bd 6026 81bd
00000200: 0e26 e03d c07d 703d 1454 02bd c08d 43bd
00000210: 9070 4bbd 90ec 23bc 1c71 ce3d 72e4 f43d
00000220: 1026 603c 160d cd3d d441 c3bd 36cc d83d
00000230: d8c3 30bd c053 3b3d a054 c7bc 4cc3 513d
00000240: e873 433d c6f3 fe3d e846 d03c 6079 85bb
00000250: a07d e43c d410 8b3d ac8b b63d 5890 c23c
00000260: 667b 8a3d 40ab 383c 005a c83c a017 bbbb
00000270: 8037 28bd a0f2 da3c 801b b2bd bace f73d
00000280: e026 103c b001 0a3c b662 83bd 728f 8abd
00000290: 608c ccbc ccf5 06bd b81d fdbd 208a 883b
000002a0: 347b cd3d 28be a7bd 7863 ff3d 98ee 93bd
000002b0: 10ec b13c 1ca5 04bd 80ea 943c 30c1 83bc
000002c0: ba93 9e3d bc03 c53d 400b d1bc acb8 3e3d
000002d0: 84d0 d93d 1074 61bd 5269 b6bd e020 883b
000002e0: 1802 a63d e09b efbb c6bb f93d 7274 cc3d
000002f0: a03c 43bd ce4b 94bd c0b7 72bb c022 e13c
00000300: 5462 133d 68bf f2bc 0a0b b63d b86e fb3d
00000310: 003c 92bd 0405 9bbd 40e0 94bd e03f 403d
00000320: 8c7c b0bd a8ac 9ebd 6c0f 903d 76d3 a1bd
00000330: 38fc fcbc 1a66 87bd fe94 fc3d b060 11bc
00000340: 5018 a2bc a64d e53d 548a aabd 8a88 88bd
00000350: d478 123d ac3e 4cbd 74f0 2abd 24a4 6e3d
00000360: 8cf8 92bd f4ad 0a3d a0e7 2abc d4a6 703d
00000370: 4085 c4bb e618 9ebd 00a4 46bd bca6 6dbd
00000380: 4ce0 8b3d 422b c1bd 3017 423c e4a9 66bd
00000390: 7e79 db3d 080b 94bd 24d0 b83d 00c0 1f3d
000003a0: e886 953c fca0 b13d 1079 553c 5c2f eb3d
000003b0: 3c62 1ebd 98bf 8ebd 7878 463d 007b 413c
000003c0: 8014 03bb 44d1 12bd 2661 87bd d811 463d
000003d0: fae9 e4bd a029 783d 0cac dcbd b035 e33c
000003e0: 501a 933c a0d9 1f3d 701c 0ebd f0c0 50bc
000003f0: 2404 e93d ba3b f9bd 1cac e8bd 1099 d93c

gru.bias_ih_l1 f4 [192]
-0.10638394 0.09734985 -0.13478121 0.12628284 -0.13593496 -0.056916278 -0.08381358 0.03531843
-0.0005152269 -0.09048505 -0.04528531 -0.053478293 0.012546688 0.025450837 -0.006936353 -0.11984549
0.020340316 0.10630637 -0.09498071 0.10565682 -0.012726285 -0.031228961 -0.00062568963 -0.11015738
-0.07276274 0.08449991 -0.005966543 -0.081808105 0.030871954 0.09264311 0.041900884 0.023848869
0.048054066 -0.03451593 -0.094957896 -0.0010138312 -0.12042321 -0.01331957 0.023249866 0.105730966
-0.06791178 -0.042844944 -0.11110879 -0.12493828 -0.089508675 -0.021012016 -0.011605739 -0.06584916
-0.003168521 0.0575021 -0.040911887 -0.06792245 0.0024450726 0.013973315 -0.005552969 -0.10283626
-0.03843728 -0.09014126 -0.0425063 -0.10660349 -0.029199183 -0.083127834 -0.08239264 -0.059967216
-0.0903631 0.07087742 0.094231695 0.046982944 -0.09459322 0.07521337 -0.017245136 -0.095778406
0.024177179 0.11374499 -0.051702473 -0.06969069 -0.073664114 -0.07271463 0.09039795 -0.025590545
-0.053195346 -0.119020745 -0.10044924 -0.007934365 0.004308147 0.108141415 0.07348511 0.0071096965
0.0093252305 0.060125984 -0.0070643323 -0.041970655 -0.041025337 0.029410407 0.058420524 -0.044007774
-0.048036434 -0.007675955 0.10396566 0.12712777 0.03600524 0.112581596 -0.015831804 -0.09771304
-0.11672149 -0.123095155 0.108015686 0.10633754 0.07385642 0.13829158 -0.043594845 -0.10068436
0.047022335 -0.11366151 0.12622316 -0.095044486 0.07828429 -0.02688815 0.10628003 -0.08407781
-0.074917726 0.091448866 -0.12053534 0.00946004 0.08659054 0.010254941 -0.106043704 -0.028433787
-0.041278362 -0.03579004 -0.09189968 0.092210166 -0.12124524 -0.05871139 0.05429288 -0.046365302
-0.010101467 0.051148247 0.073992684 0.016990587 -0.0093091 0.047456056 0.06133557 -0.06544286
0.037264314 0.11800346 -0.07755643 -0.09017957 -0.08758642 -0.07246985 0.011825398 -0.107121296
0.014656104 0.117583685 0.11044455 -0.046365563 0.07449092 0.056784235 0.060939454 -0.10374295
-0.10433457 0.10006761 -0.10081011 0.062412154 0.09974482 0.0016898285 0.030914338 -0.07493625
-0.07860176 0.03361455 -0.108328156 0.048536308 0.025873259 -0.019836891 0.06926394 -0.04645514
0.09200507 0.04279896 0.112085335 0.06827824 -0.037644282 0.06257063 0.088425785 -0.106627
0.08945954 -0.06584882 0.024286114 -0.06327559 0.06887573 -0.116962224 -0.09973364 -0.09594399
00000000: d3df d9bd 5c5f c73d 1604 0abe 4a50 013e
00000010: 8932 0bbe 0b21 69bd 74a6 abbd 0faa 103d
00000020: 4b10 07ba 3a50 b9bd 177d 39bd 0e0c 5bbd
00000030: a090 4d3c 467e d03c 594a e3bb 8d71 f5bd
00000040: bca0 a63c 27b7 d93d 3f85 c2bd 9a62 d83d
00000050: e881 50bc e1d3 ffbc 5205 24ba 319a e1bd
00000060: a204 95bd 4a0e ad3d fe82 c3bb 028b a7bd
00000070: 2ee7 fc3c acbb bd3d 43a0 2b3d b45e c33c
00000080: 57d4 443d 9360 0dbd 4979 c2bd 88e2 84ba
00000090: 72a0 f6bd 533a 5abc 8176 be3c 7a89 d83d
000000a0: 5515 8bbd 2e7e 2fbd 018d e3bd a4df ffbd
000000b0: 5350 b7bd 6421 acbc ff25 3ebc eddb 86bd
000000c0: f6a6 4fbb 5287 6b3d 3993 27bd ed1a 8bbd
000000d0: 833d 203b 55f0 643c aef5 b5bb d19b d2bd
000000e0: 6970 1dbd fb9b b8bd 161b 2ebd ee52 dabd
000000f0: 2033 efbc ed3e aabd 79bd a8bd 2fa0 75bd
00000100: 4a10 b9bd 2e28 913d 8cfc c03d 3071 403d
00000110: 17ba c1bd 7809 9a3d ac45 8dbc 7827 c4bd
00000120: 380f c63c 22f3 e83d f9c5 53bd feb9 8ebd
00000130: 36dd 96bd 68eb 94bd 8f22 b93d 43a3 d1bc
00000140: 5de3 59bd 26c1 f3bd 55b8 cdbd 24ff 01bc
00000150: 5b2b 8d3b 3f79 dd3d 5d7f 963d 75f8 e83b
00000160: dac8 183c aa46 763d ea7b e7bb 6ce9 2bbd
00000170: 2f0a 28bd 18ee f03c 5c4a 6f3d 7f41 34bd
00000180: dac1 44bd 9486 fbbb f3eb d43d c82d 023e
00000190: 3b7a 133d 2e91 e63d b3b1 81bc c61d c8bd
000001a0: ad0b efbd 5019 fcbd 5437 dd3d 7fc7 d93d
000001b0: 0942 973d 4f9c 0d3e 8290 32bd 9a33 cebd
000001c0: 7e9a 403d 5ec7 e8bd a540 013e afa6 c2bd
000001d0: 8453 a03d 8a44 dcbc 58a9 d93d fd30 acbd
000001e0: 776e 99bd 8b49 bb3d 3bdb f6bd 49fe 1a3c
000001f0: 6256 b13d 5704 283c 712d d9bd f9ed e8bc
00000200: 8013 29bd 9498 12bd e635 bcbd afd8 bc3d
00000210: 6d4f f8bd 5b7b 70bd 3662 5e3d 8be9 3dbd
00000220: a080 25bc d380 513d 7a89 973d d82f 8b3c
00000230: 3285 18bc 4861 423d 023b 7b3d e806 86bd
00000240: 77a2 183d ccab f13d e8d5 9ebd 11b0 b8bd
00000250: 8260 b3bd 136b 94bd 50bf 413c 6962 dbbd
00000260: 2820 703c b7cf f03d c130 e23d d1e9 3dbd
00000270: b28e 983d 9696 683d a69b 793d 2f77 d4bd
00000280: 5dad d5bd 3ff0 cc3d 8875 cebd e3a3 7f3d
00000290: 0347 cc3d 3c7d dd3a 1140 fd3c 2d78 99bd
000002a0: f6f9 a0bd 69af 093d 27db ddbd 02ce 463d
000002b0: 28f4 d33c fa80 a2bc 41da 8d3d bf47 3ebd
000002c0: 276d bc3d f64d 2f3d ff8c e53d 76d5 8b3d
000002d0: e430 1abd 0825 803d 9418 b53d 425f dabd
000002e0: 9036 b73d bfdb 86bd acf3 c63c a296 81bd
000002f0: b80e 8d3d e489 efbd 2741 ccbd 487e c4bd

gru.bias_hh_l1 f4 [192]
0.07015463 0.009286579 -0.033597518 0.072478645 0.047697477 0.021719683 0.10671967 -0.11961376
-0.014665404 -0.0147766555 -0.022258658 -0.055038728 0.08091936 -0.10870427 0.11048562 -0.045477062
-0.021070369 -0.103401564 -0.026161548 -0.056721054 0.085199915 0.12311904 0.12128079 0.035907384
-0.10531713 -0.0673688 -0.05661801 -0.016939081 0.022250026 0.06015099 -0.017253887 0.060978856
-0.018847296 -0.09462268 -0.01966843 0.014293733 0.04325707 -0.029484501 -0.013486339 0.07400006
-0.06958755 0.04750035 0.057330735 0.058208205 -0.10092855 0.03625378 0.09360385 0.061928708
-0.08528486 0.018753728 -0.058757126 0.013378398 -0.07754938 -0.07113092 0.009563302 0.018666495
-0.031931896 -0.09254291 -0.13239129 0.010695211 -0.10595422 -0.021600861 0.09968432 -0.090262614
-0.060699053 0.071673155 0.0060084797 0.086269595 -0.007214497 -0.13354331 0.06835071 0.024707401
0.122484796 0.027554212 0.032102946 -0.08119145 -0.09091546 0.123994425 -0.0884689 -0.017497672
-0.12666334 0.018592663 -0.001473625 0.0066887317 0.05151946 0.029775815 -0.048432812 -0.04293152
0.023327148 -0.08609041 -0.0716132 0.032035876 -0.11555539 -0.067105815 0.03254986 0.0732106
0.00052843394 -0.026448935 -0.09038507 -0.106283575 0.034068953 -0.1063489 0.014145247 0.13610393
-0.04515175 0.02544557 0.046926912 -0.1159539 0.11139732 0.0986342 0.05259008 0.01313123
0.019795718 -0.05310039 -0.045528933 0.040594578 0.102856964 0.014158771 -0.039515417 -0.05252854
-0.05389834 0.09046199 0.080616765 -0.054222018 -0.0062246234 -0.014782491 -0.038663995 -0.051030222
-0.10658598 -0.024200369 0.10119423 -0.012456149 0.0074930633 -0.12280671 0.12209762 0.0012486507
0.059908852 0.025960376 0.08508414 -0.07569969 0.062001586 0.09061036 -0.1150629 -0.08642693
-0.07732193 0.12559356 -0.10548009 0.10201366 0.09098791 -0.053470258 -0.05845757 -0.098983064
-0.07917919 -0.09587751 -0.050265625 -0.087604135 -0.10761816 -0.11477693 0.058197625 -0.10900975
-0.018180886 -0.013219027 -0.04368249 -0.12229782 -0.024327192 0.05248934 0.004139122 0.09897579
-0.033474013 0.04925076 0.052053995 -0.092163295 0.012344044 -0.021650169 -0.02855483 -0.12218839
0.08534174 -0.06379999 0.026524335 0.012306702 -0.048128825 -0.09844926 0.07634582 -0.08920492
-0.096220225 0.02222409 0.005698104 0.12340752 -0.10733668 0.045464676 -0.010166996 -0.049592063
00000000: 3bad 8f3d bc26 183c 8d9d 09bd af6f 943d
00000010: 6e5e 433d 7aed b13c d88f da3d 0ff8 f4bd
00000020: 2a47 70bc c919 72bc ca57 b6bc 4a70 61bd
00000030: 0db9 a53d 58a0 debd 4946 e23d 2846 3abd
00000040: c49b acbc 33c4 d3bd be50 d6bc 5654 68bd
00000050: 4b7d ae3d d625 fc3d 1062 f83d 9f13 133d
00000060: 82b0 d7bd a7f8 89bd 49e8 67bd d4c3 8abc
00000070: b045 b63c e260 763d 0658 8dbc f7c4 793d
00000080: a565 9abc 89c9 c1bd b01f a1bc 4330 6a3c
00000090: 532e 313d 7b89 f1bc cef5 5cbc 588d 973d
000000a0: eb83 8ebd ba8f 423d a2d3 6a3d ba6b 6e3d
000000b0: a1b3 cebd d87e 143d 60b3 bf3d f5a8 7d3d
000000c0: d4a9 aebd 6ba1 993c 50ab 70bd 1131 5b3c
000000d0: 36d2 9ebd 16ad 91bd 65af 1c3c 7aea 983c
000000e0: 05cb 02bd 2387 bdbd 9591 07be f73a 2f3c
000000f0: 87fe d8bd 4af4 b0bc 4b27 cc3d 9bdb b8bd
00000100: 929f 78bd 60c9 923d c8e2 c43b 1dae b03d
00000110: 9667 ecbb 94bf 08be 75fb 8b3d 2d67 ca3c
00000120: 4fd9 fa3d 5fb9 e13c 617e 033d b447 a6bd
00000130: e231 babd caf0 fd3d 2f2f b5bd 4757 8fbc
00000140: 09b4 01be a44f 983c a626 c1ba 262d db3b
00000150: 1206 533d 69ec f33c 7c61 46bd f6d8 2fbd
00000160: 9318 bf3c 2b50 b0bd f1a9 92bd 0d38 033d
00000170: 4ea8 ecbd c66e 89bd 0153 053d 70ef 953d
00000180: 9a86 0a3a 70ab d8bc cf1b b9bd 34ab d9bd
00000190: e38b 0b3d 74cd d9bd 77c1 673c d45e 0b3e
000001a0: 0bf1 38bd 3a73 d03c 6f36 403d 3d79 edbd
000001b0: 4724 e43d ba00 ca3d b268 573d 5f24 573c
000001c0: a12a a23c cb7f 59bd 8c7c 3abd 8046 263d
000001d0: aca6 d23d 31fa 673c ebda 21bd 2b28 57bd
000001e0: 81c4 5cbd 2344 b93d 671a a53d e817 5ebd
000001f0: edf7 cbbb 4332 72bc 235e 1ebd 1105 51bd
00000200: c049 dabd da3f c6bc ec3e cf3d e014 4cbc
00000210: 5f88 f53b 1682 fbbd 510e fa3d c4a9 a33a
00000220: fc62 753d dbaa d43c 9840 ae3d 7008 9bbd
00000230: 60f5 7d3d ed91 b93d 19a6 ebbd 9a00 b1bd
00000240: f65a 9ebd 999b 003e f205 d8bd 8aec d03d
00000250: df57 ba3d a103 5bbd 3471 6fbd a2b7 cabd
00000260: b328 a2bd 6e5b c4bd 54e3 4dbd cc69 b3bd
00000270: e966 dcbd 2b10 ebbd a260 6e3d 8140 dfbd
00000280: 15f0 94bc 9e94 58bc 69ec 32bd 4877 fabd
00000290: d249 c7bc 10ff 563d 79a1 873b d2b3 ca3d
000002a0: 0c1c 09bd 2abb 493d 9236 553d 1cc0 bcbd
000002b0: ac3e 4a3c b25b b1bc d2eb e9bc e83d fabd
000002c0: a6c7 ae3d 92a9 82bd 9049 d93c 0da2 493c
000002d0: bb22 45bd c49f c9bd 335b 9c3d 12b1 b6bd
000002e0: 1c0f c5bd 4b0f b63c 29b7 ba3b 15bd fc3d
000002f0: 55d3 dbbd 2b39 3a3d 7993 26bc 0c21 4bbd

fc.weight f4 [1, 64]
0.055575144 -0.044753227 -0.05141741 -0.0372945 -0.07007771 -0.08099896 0.06699098 0.09458888
0.07065385 0.1014494 -0.08663404 -0.0012053644 0.12785122 -0.02728805 -0.112204425 0.09249812
0.13269453 0.045926172 -0.078615546 0.0014229609 0.016806241 -0.13337679 -0.124821626 0.08409528
-0.066081196 0.11996423 0.017905498 0.055193342 0.06851296 -0.11989706 -0.059608568 -0.02748877
-0.00094956 0.085125476 0.093523964 -0.013658294 0.068292186 -0.008743612 0.0057209306 -0.017286057
-0.031170327 0.059080932 0.09291537 0.02301872 -0.00082947337 0.09241815 -0.0038086865 -0.04605551
0.10720779 0.042555045 -0.032709092 0.11121942 -0.072995245 -0.13065752 0.032240473 0.0946819
-0.037738994 0.006258316 -0.029961916 0.019686619 0.067563385 -0.029206384 -0.048897624 0.0918378
00000000: c3a2 633d 294f 37bd 109b 52bd 1ec2 18bd
00000010: e784 8fbd c8e2 a5bd 9132 893d d1b7 c13d
00000020: f7b2 903d b4c4 cf3d 306d b1bd 51fd 9dba
00000030: 6eeb 023e 308b dfbc 6fcb e5bd a86f bd3d
00000040: 13e1 073e 151d 3c3d 3001 a1bd a582 ba3a
00000050: 3ead 893c ed93 08be 7ba2 ffbd 253a ac3d
00000060: 9455 87bd ceaf f53d 8dae 923c 6a12 623d
00000070: 8650 8c3d 978c f5bd 1d28 74bd 2130 e1bc
00000080: e5eb 78ba 4456 ae3d 7e89 bf3d 0ac7 5fbc
00000090: c6dc 8b3d 5e41 0fbc a576 bb3b 7d9b 8dbc
000000a0: ea58 ffbc d9fe 713d 6a4a be3d c191 bc3c
000000b0: 0471 59ba ba45 bd3d 289b 79bb b4a4 3cbd
000000c0: c28f db3d 334e 2e3d f8f9 05bd 02c7 e33d
000000d0: 887e 95bd 16cb 05be 960e 043d 96e8 c13d
000000e0: 3494 1abd 8f12 cd3b b172 f5bc d545 a13c
000000f0: ac5e 8a3d 3a42 efbc e048 48bd 7515 bc3d
