model & ai/models/rul_lstm_model.pth (torch, 209205 bytes, 9 tensors)

lstm.weight_ih_l0 f4 [256, 4]
0.033989616 0.10647581 -0.08673154 0.063477516 0.07651505 0.05992644 0.04834248 0.0011656022
-0.06364598 -0.06305935 0.021782607 -0.07220903 -0.060615264 0.06673605 0.09126604 0.10629444
0.06126455 0.09192733 0.06717628 -0.027743258 -0.080557026 0.1413797 0.08426039 0.024089279
0.05023435 0.09584853 0.013315237 -0.08712703 -0.07253117 -0.00040272763 0.13729219 0.12283844
0.07955566 -0.08262363 0.014911448 0.10038172 0.13689476 0.005558203 0.06292965 -0.044479627
-0.033618584 0.11368736 0.0017700319 0.07834901 0.0034956357 0.1289391 0.14391297 0.040927492
0.02151756 0.041897964 0.03149674 -0.038027126 0.089242026 0.024996454 0.005829739 0.05591045
0.14504692 0.09401 0.028263928 0.14850824 -0.036004316 0.06977342 0.08174119 -0.036127906
0.07694074 -0.015135674 -0.07875877 0.07242516 0.047942776 -0.07660887 0.110895716 0.059749313
0.09581285 0.111021094 -0.0020004057 0.00725222 -0.091370486 -0.08857574 -0.009625819 0.11930569
0.08560439 0.089660816 -0.053837616 -0.0894951 0.07837864 -0.07829386 -0.014406058 0.07729141
-0.0021310532 0.10187846 0.024960551 -0.007805176 -0.018364435 0.042432807 -0.053349063 -0.02099849
0.07336246 0.12780632 0.0058130845 -0.021093197 0.15430745 0.117645405 0.0050170394 -0.0043979227
-0.071830265 -0.038420986 0.022519544 0.106429994 -0.016564982 0.10176336 0.018658923 -0.04695684
-0.0073740054 0.12805249 0.01829926 0.00063769403 -0.019651862 -0.056057245 -0.0630098 -0.042309396
0.13909884 0.021615166 -0.08832795 0.15286364 -0.044468798 0.106603585 0.083580315 0.08714758
-0.046028245 -0.036780953 0.06473275 0.056934282 -0.0014153509 -0.08514499 0.039145775 0.008583563
-0.066071875 0.026917415 -0.011334022 0.07706315 0.052752644 -0.000583372 -0.042881783 -0.06564119
0.14183076 0.11645413 -0.05041229 0.011792172 -0.026439672 0.15565926 -0.032052644 0.100124344
-0.03637203 -0.01734347 0.11047147 -0.06908235 -0.08584806 -0.08235484 -0.019183785 -0.035617553
-0.06704898 0.009747583 -0.07462745 -0.103113554 -0.029536998 0.049474385 0.08394621 0.05781656
0.039825022 0.12977666 0.001588591 0.1315147 -0.01239666 0.06659982 0.05849828 0.015390721
0.09833244 0.15248348 -0.061160583 0.042625282 0.07805593 -0.040830836 0.024436094 -0.025568789
0.1086916 0.1377974 0.04785372 0.03458732 -0.08820586 0.0887166 0.08526663 -0.07005894
-0.015698075 -0.0786875 0.0021337671 -0.019059772 0.06848317 0.09614228 -0.022929939 -0.0049396087
0.011532653 -0.074710846 0.09757578 0.055091985 0.14881445 -0.0950258 0.15353028 0.13716847
-0.0063119777 0.032147158 0.124954656 0.13987468 0.063176945 0.019980034 0.13159019 -0.03320287
-0.025443101 0.118269354 0.059445757 0.045932155 0.11393672 -0.0035337869 1.4575738e-06 -0.060767844
-0.05715464 -0.022108754 0.067964114 0.04926584 0.09406626 -0.04077182 0.07016392 0.10739237
0.14693995 -0.03350642 0.098813005 0.095335945 0.09679187 -0.0691111 0.11788945 0.0095653385
0.024984661 0.047877245 -0.057761125 -0.051395833 0.15176146 -0.041452304 0.09493884 0.0029263466
0.011472692 -0.04399597 0.076313384 -0.08569035 -0.08331232 -0.05094208 -0.05283799 0.011813495
00000000: b238 0b3d fd0f da3d 4ea0 b1bd 8000 823d
00000010: ecb3 9c3d 6d75 753d c402 463d 1fc7 983a
00000020: d358 82bd 4325 81bd 7071 b23c 54e2 93bd
00000030: b647 78bd e9ac 883d b1e9 ba3d e6b0 d93d
00000040: 89f0 7a3d 6544 bc3d b893 893d d445 e3bc
00000050: 15fb a4bd d7c5 103e b690 ac3d e156 c53c
00000060: 89c2 4d3d 3c4c c43d 2728 5a3c a86f b2bd
00000070: 398b 94bd 3025 d3b9 5396 0c3e b892 fb3d
00000080: 14ee a23d 9436 a9bd 254f 743c ee94 cd3d
00000090: 242e 0c3e 9621 b63b 43e1 803d 4530 36bd
000000a0: a4b3 09bd ebd4 e83d 6a00 e83a 7275 a03d
000000b0: 0917 653b 9d08 043e ec5d 133e 96a3 273d
000000c0: 9845 b03c 339d 2b3d ba02 013d 55c2 1bbd
000000d0: 86c4 b63d 5dc5 cc3c 6507 bf3b 5b02 653d
000000e0: 2e87 143e 5188 c03d c189 e73c 8b12 183e
000000f0: 4379 13bd 5ee5 8e3d ed67 a73d dbfa 13bd
00000100: 1b93 9d3d 9efb 77bc 474c a1bd a453 943d
00000110: a55f 443d 1ce5 9cbd 4b1d e33d b2bb 743d
00000120: 8739 c43d 075f e33d 3d19 03bb 08a4 ed3b
00000130: 7320 bbbd 3367 b5bd 9cb5 1dbc 8b56 f43d
00000140: 5b51 af3d 17a0 b73d d584 5cbd 3549 b7bd
00000150: fb84 a03d 8858 a0bd 6307 6cbc f54a 9e3d
00000160: 24a9 0bbb a7a5 d03d 127a cc3c 90c2 ffbb
00000170: 0371 96bc 06ce 2d3d 8c84 5abd 0605 acbc
00000180: 0f3f 963d a9df 023e b07b be3b a4cb acbc
00000190: c602 1e3e 13f0 f03d fa65 a43b 731c 90bb
000001a0: bf1b 93bd 535f 1dbd e87a b83c f8f7 d93d
000001b0: 49b3 87bc 4f69 d03d 99da 983c d155 40bd
000001c0: a4a1 f1bb 3120 033e 54e8 953c ec2a 273a
000001d0: f1fc a0bc 489c 65bd 480b 81bd 9e4c 2dbd
000001e0: ed6f 0e3e 4a12 b13c 49e5 b4bd 4988 1c3e
000001f0: ea24 36bd fb52 da3d 282c ab3d 6e7a b23d
00000200: 1d88 3cbd a0a7 16bd 9b92 843d ec33 693d
00000210: 4c83 b9ba 7f60 aebd 5257 203d 13a2 0c3c
00000220: b150 87bd e981 dc3c 55b2 39bc 49d3 9d3d
00000230: 2813 583d 6fed 18ba cfa4 2fbd e36e 86bd
00000240: 153c 113e 817f ee3d 1e7d 4ebd f433 413c
00000250: 0398 d8bc 2465 1f3e a249 03bd fe0d cd3d
00000260: d6fa 14bd e513 8ebc de3e e23d 0c7b 8dbd
00000270: 1cd1 afbd a8a9 a8bd 5027 9dbc b6e3 11bd
00000280: fa50 89bd 54b4 1f3c 47d6 98bd 332d d3bd
00000290: 93f7 f1bc a7a5 4a3d feeb ab3d 0fd1 6c3d
000002a0: 901f 233d 2ce4 043e 4538 d03a caab 063e
000002b0: 5c1b 4bbc 7d65 883d e49b 6f3d 5d29 7c3c
000002c0: 8562 c93d a124 1c3e 8583 7abd d997 2e3d
000002d0: cadb 9f3d 3c3e 27bd 342e c83c a375 d1bc
000002e0: b499 de3d c31a 0d3e 4302 443d 6fab 0d3d
000002f0: 46a5 b4bd 0cb1 b53d 45a0 ae3d 107b 8fbd
00000300: 4099 80bc e926 a1bd acd6 0b3b 3d23 9cbc
00000310: e740 8c3d 3ee6 c43d 91d7 bbbc 71dc a1bb
00000320: 74f3 3c3c 0002 99bd cfd5 c73d 22a8 613d
00000330: d162 183e e39c c2bd 0b37 1d3e e475 0c3e
00000340: b5d4 cebb bdac 033d 3ae8 ff3d 4f3b 0f3e
00000350: ea62 813d 2bad a33c 94bf 063e bcff 07bd
00000360: 0d6e d0bc 3437 f23d 657d 733d 5b23 3c3d
00000370: a857 e93d 1b97 67bb dba1 c335 b4e7 78bd
00000380: fc1a 6abd 6b1d b5bc c530 8b3d faca 493d
00000390: d0a5 c03d 5a00 27bd 1ab2 8f3d 88f0 db3d
000003a0: 6d77 163e 073e 09bd 795e ca3d 7e3f c33d
000003b0: d13a c63d 1f8a 8dbd 0670 f13d f0b7 1c3c
000003c0: a2ac cc3c ee1a 443d ee96 6cbd 7084 52bd
000003d0: 5b67 1b3e e4c9 29bd 4b6f c23d f3c7 3f3b
000003e0: f5f7 3b3c 1e35 34bd 314a 9c3d 6c7e afbd
000003f0: a69f aabd a4a8 50bd a66c 58bd 648d 413c

lstm.weight_hh_l0 f4 [256, 64]
0.13835634 -0.11971105 -0.07169022 0.15673801 -0.079759076 -0.09487083 -0.017478524 0.052504312
0.06948493 0.11343951 -0.06835183 -0.14678341 -0.035847373 -0.03425509 0.029166346 -0.053267326
-0.046559483 0.051401634 -0.036237918 0.0065427553 0.10718713 0.12149195 0.035441212 -0.010391214
0.08731095 -0.07133419 -0.09073436 0.09908764 -0.095092766 -0.09864403 0.0597133 -0.06740322
0.045194093 0.109705105 0.082744166 -0.06439974 -0.025045633 0.0069750124 0.1266643 0.027638603
0.039432127 -0.08898085 -0.08939615 -0.06960836 -0.08536098 0.023891201 0.10640947 -0.079883404
0.087113045 0.06374652 -0.008086262 0.07991182 -0.01797197 -0.13539526 -0.13022655 -0.074170254
-0.024944898 -0.046725854 -0.023045551 0.011507754 0.15000023 -0.10585067 -0.048232432 -0.07129856
-0.10056467 -0.113967724 0.12210943 -0.08239889 0.14302708 -0.03788254 -0.030887116 0.042991728
-0.0988361 0.05753289 0.016786397 -0.14013056 -0.11196609 0.05862132 -0.07157589 0.032898176
0.072692335 -0.08143805 0.06824457 -0.14624189 0.09044352 -0.03319313 0.07813891 0.114990346
-0.14784433 -0.03710896 -0.091874875 -0.03995147 0.090461574 -0.027987398 -0.02711502 -0.07343935
0.011602294 -0.08303417 -0.040181857 -0.055901736 -0.050097875 0.10469915 0.06504106 -0.0707697
0.1404977 0.050138224 0.09765881 0.042219825 -0.1321786 -0.030721853 0.092583485 0.036415767
-0.026361186 -0.10176591 0.013043525 0.021775233 -0.12101416 -0.09438702 0.0096213175 0.099398255
-0.14031366 0.14311737 0.14934477 -0.038483363 0.088046424 0.038465172 -0.11744866 0.018629823
-0.013296941 0.011776378 0.06720729 0.032097045 0.1447659 -0.13947028 -0.076481014 0.02843775
0.035022914 0.14133678 -0.011897191 -0.10805417 -0.06472629 -0.06143926 0.008584439 0.009637863
-0.095282964 -0.022020169 -0.065706044 0.06373589 -0.03520708 0.057887312 -0.113772295 0.124986514
0.05585956 0.07215588 -0.035356335 -0.123815596 0.05096345 -0.0016573541 0.036063414 0.12016431
-0.055255786 -0.043634064 0.10119055 0.06831934 0.052620176 -0.004072045 0.1606022 -0.010817731
0.01435239 -0.12535276 -0.016793456 -0.0028228774 -0.009964985 0.1420734 0.06888477 -0.064856626
0.08736381 -0.02151407 -0.037688725 0.023916913 0.090121225 -0.049345326 0.08252534 0.037253074
0.033118725 0.055017017 0.07893308 -0.010016463 0.12011124 0.04893558 -0.15099254 -0.13987623
-0.07202155 -0.14164482 -0.0004712677 -0.03410086 -0.0044329073 -0.11813314 0.053385805 0.056988046
0.0755754 0.15526302 -0.14316739 -0.061299577 -0.09405103 -0.04563933 0.03471218 0.017687855
-0.07000781 -0.12955074 -0.06048305 0.06941216 0.04176103 0.0044692587 -0.07585192 0.032014668
0.054630626 0.024992498 0.00053281547 -0.013213593 0.022817321 0.0485736 -0.059025828 0.11690492
0.11463032 0.009436698 0.15963483 -0.011121449 -0.13744612 0.13139938 0.16067389 -0.031806257
-0.04286818 0.02824089 0.02654793 0.10993694 -0.15149352 -0.040592443 -0.07577996 0.11463722
0.011005663 -0.11314288 -0.04338194 -0.07230494 0.0042489795 0.022103457 -0.05760438 -0.078589335
-0.13194144 -0.029579446 -0.010962825 0.013864412 0.12430164 -0.043004375 0.023901945 0.024526814
00000000: 49ad 0d3e 112b f5bd 52d2 92bd ee7f 203e
00000010: ba58 a3bd a34b c2bd 1f2f 8fbc c30e 573d
00000020: 1d4e 8e3d f952 e83d 0bfc 8bbd 644e 16be
00000030: b2d4 12bd 114f 0cbd 43ee ee3c d72e 5abd
00000040: 28b5 3ebd 858a 523d 366e 14bd 9c64 d63b
00000050: ed84 db3d c5d0 f83d ce2a 113d e93f 2abc
00000060: 15d0 b23d a917 92bd f0d2 b9bd 76ee ca3d
00000070: ffbf c2bd e205 cabd ef95 743d b30a 8abd
00000080: 711d 393d 12ad e03d c675 a93d 03e4 83bd
00000090: 802c cdbc a58e e43b 49b4 013e 5a6a e23c
000000a0: 9583 213d 983b b6bd 5415 b7bd d48e 8ebd
000000b0: bdd1 aebd 7bb7 c33c 35ed d93d e999 a3bd
000000c0: 5368 b23d 898d 823d 3e7c 04bc cfa8 a33d
000000d0: f439 93bc 0ea5 0abe 1c5a 05be 93e6 97bd
000000e0: 3e59 ccbc 9c63 3fbd 06ca bcbc 058b 3c3c
000000f0: a999 193e 3cc8 d8bd 5f8f 45bd fb04 92bd
00000100: daf4 cdbd e967 e9bd 8214 fa3d c0c0 a8bd
00000110: b175 123e b92a 1bbd fa06 fdbc 1818 303d
00000120: 956a cabd 9ca7 6b3d a083 893c 637e 0fbe
00000130: 7a4e e5bd e91c 703d 6196 92bd 3dc0 063d
00000140: b8df 943d fec8 a6bd cfc3 8b3d 6fc0 15be
00000150: 743a b93d 85f5 07bd 4b07 a03d 0f80 eb3d
00000160: 8164 17be 91ff 17bd e528 bcbd 27a4 23bd
00000170: eb43 b93d d445 e5bc 5220 debc 5f67 96bd
00000180: 8c17 3e3c d20d aabd bb95 24bd 38f9 64bd
00000190: 6e33 4dbd 826c d63d 3f34 853d b4ef 90bd
000001a0: a1de 0f3e bd5d 4d3d 5801 c83d b2ee 2c3d
000001b0: d459 07be 65ac fbbc 699c bd3d b328 153d
000001c0: 6af3 d7bc a56a d0bd 82b4 553c f961 b23c
000001d0: 46d6 f7bd fb4d c1bd bba2 1d3c 5091 cb3d
000001e0: 62ae 0fbe 5c8d 123e d6ed 183e bba0 1dbd
000001f0: af51 b43d a88d 1d3d ec88 f0bd 929d 983c
00000200: 6adb 59bc b6f1 403c faa3 893d 3178 033d
00000210: 833d 143e 4cd1 0ebe 14a2 9cbd 49f6 e83c
00000220: 3074 0f3d 97ba 103e 70ec 42bc 814b ddbd
00000230: 388f 84bd bca7 7bbd bfa5 0c3c 21e8 1d3c
00000240: b723 c3bd a463 b4bc e490 86bd f687 823d
00000250: 4d35 10bd 3f1b 6d3d 7301 e9bd eef8 ff3d
00000260: fecc 643d 76c6 933d ced1 10bd 0893 fdbd
00000270: 0dbf 503d 933b d9ba 3bb7 133d b518 f63d
00000280: e453 62bd a2b9 32bd fe3c cf3d 03eb 8b3d
00000290: 4188 573d ca6e 85bb e774 243e da3c 31bc
000002a0: 4926 6b3c 795c 00be 6e92 89bc 0600 39bb
000002b0: 2d44 23bc b07b 113e 7513 8d3d 8dd3 84bd
000002c0: cceb b23d 463e b0bc 7e5f 1abd 67ed c33c
000002d0: 7a91 b83d 531e 4abd 0c03 a93d ae96 183d
000002e0: 80a7 073d 8659 613d aba7 a13d 171c 24bc
000002f0: e2fc f53d ad70 483d ca9d 1abe b73b 0fbe
00000300: 0980 93bd 570b 11be 7b14 f7b9 58ad 0bbd
00000310: ec41 91bb caef f1bd 13ab 5a3d 4c6c 693d
00000320: 46c7 9a3d 45fd 1e3e 799a 12be 4415 7bbd
00000330: d49d c0bd 4ef0 3abd 5c2e 0e3d 1fe6 903c
00000340: 4160 8fbd f3a8 04be 13bd 77bd f627 8e3d
00000350: 9d0d 2b3d dc72 923b 4058 9bbd d021 033d
00000360: 5dc4 5f3d 11bd cc3c a4ac 0b3a d37d 58bc
00000370: 64eb ba3c 1cf5 463d 11c5 71bd d96b ef3d
00000380: 4dc3 ea3d 619c 1a3c 5077 233e bd36 36bc
00000390: adbe 0cbe 8f8d 063e b287 243e 4747 02bd
000003a0: 8b96 2fbd 7059 e73c 0b7b d93c 9e26 e13d
000003b0: 1e21 1bbe 4344 26bd 8632 9bbd ebc6 ea3d
000003c0: 1951 343c 74b7 e7bd 43b1 31bd 9d14 94bd
000003d0: 063b 8b3b 4f12 b53c 92f2 6bbd 72f3 a0bd
000003e0: a81b 07be 9850 f2bc 6c9d 33bc 8f27 633c
000003f0: dc91 fe3d 5b25 30bd 03ce c33c 75ec c83c

lstm.bias_ih_l0 f4 [256]
0.15720962 0.14017694 0.1359909 0.0031726416 0.073982984 0.12867585 0.057640105 0.089209944
-0.07984981 0.085416906 -0.025733467 -0.07592481 -0.0069251116 0.035472568 -0.045946013 -0.004107567
0.0045559667 -0.06366893 0.0030889749 0.12665577 0.004180888 0.06962599 0.068907015 -0.014579645
-0.035720248 0.13898048 0.13733236 0.106082104 -0.0687283 -0.004032914 -0.08224869 0.09890623
0.12714955 0.14928436 -0.03684234 0.05630035 0.060501136 -0.04919905 -0.060295068 0.06075879
0.12166729 -0.010293952 -0.05520913 0.054340605 0.08437025 0.080262415 -0.061566297 0.13979162
-0.04376779 0.1283811 0.0036469575 -0.018319806 0.060074892 -0.01515938 0.066420585 -0.00035283694
0.088855825 0.058066227 0.15862384 -0.053789385 0.036583327 0.009479707 0.14001743 0.105851136
0.11517859 0.0075693997 0.015547516 0.13241602 0.07425055 0.08451228 -0.05356893 0.06931514
0.026870789 -0.02257498 0.0061924313 -0.03488653 -0.03064022 0.10667596 0.09421455 -0.08741597
-0.012191359 -0.07786796 0.11772242 0.13765462 -0.01294518 -0.01929149 0.12023871 -0.08171308
0.16045256 -0.020376565 -0.029285215 0.020493181 -0.037936427 -0.10787242 -0.054209847 0.07342238
-0.05276357 0.07809038 -0.055034168 0.012593588 0.15238445 -0.08956221 0.122494444 0.029192258
0.14336085 -0.07855887 0.021801112 0.0062053725 0.075128384 0.030200385 -0.033683743 -0.007434877
0.0933737 0.10438373 0.123708844 0.028330633 0.15713654 -0.06212665 0.06921708 -0.0030179762
0.011841832 -0.065685295 0.089551665 0.024634339 -0.07343332 0.07467816 0.08075567 -0.07534236
0.04881238 -0.086434975 0.013347276 0.11219777 0.021490337 0.013124446 -0.07417859 0.15200317
0.049359128 -0.01613974 0.037854824 -0.047078587 -0.1442521 -0.1323 -0.11473058 -0.0114571275
0.02288823 -0.026916469 0.0839541 -0.025486428 0.05484174 0.018626627 -0.08840249 -0.027496766
-0.15650137 -0.024796592 -0.09055833 0.09000272 -0.043933365 -0.07584939 -0.07420576 0.13808759
0.024114968 0.111713685 0.10116942 -0.06102756 -0.10223942 0.1568665 0.12594654 -0.09969697
0.12222636 0.030087711 -0.09573475 -0.085771605 -0.13139646 0.055350818 -0.062114414 0.06251522
-0.12656453 -0.11198307 -0.0142375305 -0.11913396 -0.10810478 0.033842582 -0.09974431 0.1273231
-0.05147927 0.07498934 0.11696489 -0.09236412 0.048123393 -0.029850265 0.051141106 -0.16053449
0.12794153 -0.0142958015 0.08180926 0.15361546 0.00012501456 -0.032159198 0.16484176 0.037227996
0.049026806 0.005700244 0.13769445 -0.056084935 0.04198406 0.08520286 0.051013045 0.05040866
0.14098866 0.15338781 -0.010280395 0.047071446 0.08195929 0.07849368 0.1351665 -0.03753712
0.14757544 0.092903495 0.0636145 0.06797076 0.09861783 0.033192955 0.11291731 0.04320813
0.1760619 0.15715085 0.06869556 0.05660478 -0.052554514 0.06282754 -0.015396359 0.07639112
-0.008493004 0.092129454 -0.06827054 0.12033535 0.0743454 -0.03348991 -0.02072182 0.060182407
0.16318876 0.12267315 -0.057656616 0.032304984 0.08938964 0.085891336 0.049078308 -0.050144717
0.010499304 0.025178485 0.0027484447 0.09743299 0.14313446 0.12261197 -0.03812328 -0.06737255
00000000: 8ffb 203e 8b8a 0f3e 3341 0b3e 18ec 4f3b
00000010: 6484 973d 9ac3 033e 0818 6c3d b4b3 b63d
00000020: 4c88 a3bd 0fef ae3d fece d2bc 777e 9bbd
00000030: 0cec e2bb af4b 113d e331 3cbd c598 86bb
00000040: 384a 953b db64 82bd 6670 4a3b 0db2 013e
00000050: d5ff 883b 1298 8e3d 1f1f 8d3d 77df 6ebc
00000060: 654f 12bd e650 0e3e dba0 0c3e 9341 d93d
00000070: 6cc1 8cbd 8926 84bb 0072 a8bd 598f ca3d
00000080: 7e33 023e 00de 183e fee7 16bd 329b 663d
00000090: 0ad0 773d f184 49bd f6f7 76bd 35de 783d
000000a0: b32c f93d f7a7 28bc f822 62bd 4194 5e3d
000000b0: 4fca ac3d 9f60 a43d f12c 7cbd 8925 0f3e
000000c0: db45 33bd 5676 033e cb01 6f3b 6b13 96bc
000000d0: 1711 763d 0c5f 78bc 8407 883d f9fc b8b9
000000e0: 0bfa b53d dad6 6d3d 4a6e 223e 4252 5cbd
000000f0: 66d8 153d c650 1b3c bb60 0f3e 7bc8 d83d
00000100: c1e2 eb3d ba08 f83b 02bb 7e3c 1198 073e
00000110: ac10 983d c614 ad3d 186b 5bbd 19f5 8d3d
00000120: 2120 dc3c 2aef b8bc e1e9 ca3b 2ee5 0ebd
00000130: 3301 fbbc ed78 da3d 8ff3 c03d 2507 b3bd
00000140: 44be 47bc 3d79 9fbd 7418 f13d 55f5 0c3e
00000150: 0518 54bc 3009 9ebc b63f f63d 3059 a7bd
00000160: ad4d 243e c1ec a6bc 8ce7 efbc 51e1 a73c
00000170: 3a63 1bbd 37ec dcbd 250b 5ebd 795e 963d
00000180: 9d1e 58bd d9ed 9f3d 826b 61bd 5655 4e3c
00000190: ab0a 1c3e 646c b7bd 5ede fa3d 9a24 ef3c
000001a0: 30cd 123e 79e3 a0bd 3f98 b23c 7056 cb3b
000001b0: e9dc 993d cc66 f73c f7f7 09bd 45a0 f3bb
000001c0: b63a bf3d 23c7 d53d 105b fd3d a515 e83c
000001d0: 67e8 203e 8478 7ebd afc1 8d3d 3dc9 45bb
000001e0: 3e04 423c 0386 86bd dd66 b73d f4cd c93c
000001f0: 3564 96bd ddf0 983d 3b63 a53d 184d 9abd
00000200: 7def 473d d204 b1bd 88ae 5a3c f2c7 e53d
00000210: 810c b03c eb07 573c f2ea 97bd b8a6 1b3e
00000220: cc2c 4a3d 7d37 84bc a90d 1b3d 7ad5 40bd
00000230: d3b6 13be a779 07be def7 eabd adb6 3bbc
00000240: 1980 bb3c ed7f dcbc 21f0 ab3d eac8 d0bc
00000250: bba1 603d de96 983c 5d0c b5bd e640 e1bc
00000260: e541 20be 3922 cbbc a576 b9bd 5953 b83d
00000270: 79f3 33bd ed56 9bbd 31f9 97bd d566 0d3e
00000280: c18c c53c 25ca e43d ea31 cf3d 09f8 79bd
00000290: e762 d1bd 9da1 203e 21f8 003e ed2d ccbd
000002a0: d051 fa3d 817a f63c 9510 c4bd 06a9 afbd
000002b0: cb8c 06be 8ab7 623d af6b 7ebd fb07 803d
000002c0: 229a 01be 6157 e5bd 8844 69bc 81fc f3bd
000002d0: 0a66 ddbd 859e 0a3d bf46 ccbd fd60 023e
000002e0: eddb 52bd 0394 993d 4a8b ef3d 6629 bdbd
000002f0: 091d 453d 8b88 f4bc 5679 513d 2763 24be
00000300: 1b03 033e f038 6abc 9d8b a73d 5f4d 1d3e
00000310: 5716 0339 5db9 03bd 47cc 283e 627c 183d
00000320: 55d0 483d 1dc9 ba3b c6ff 0c3e 51b9 65bd
00000330: 7af7 2b3d d67e ae3d 0ef3 503d 5079 4e3d
00000340: 555f 103e b211 1d3e 1a6f 28bc fdcd 403d
00000350: 46da a73d 4bc1 a03d 1669 0a3e 86c0 19bd
00000360: 041e 173e 3044 be3d 5248 823d 4134 8b3d
00000370: 25f8 c93d 56f5 073d 3141 e73d 02fb 303d
00000380: 9249 343e 27ec 203e 42b0 8c3d 6ada 673d
00000390: 6743 57bd baab 803d 0341 7cbc f372 9c3d
000003a0: 3e26 0bbc 5eae bc3d 6dd1 8bbd 6172 f63d
000003b0: 6742 983d b72c 09bd cec0 a9bc d481 763d
000003c0: f41a 273e 0f3c fb3d 5829 6cbd 3b52 043d
000003d0: ea11 b73d cce7 af3d 5606 493d 8c64 4dbd
000003e0: 4605 2c3c 1c43 ce3c 401f 343b f38a c73d
000003f0: d791 123e fc1b fb3d 2827 1cbd 9ffa 89bd

lstm.bias_hh_l0 f4 [256]
0.13342278 0.066400506 0.01383676 0.07927337 -0.08875844 -0.04833302 0.056320414 -0.008216851
0.096992806 0.0357938 -0.013842134 0.14516471 -0.0033376059 0.120120354 0.00045293098 0.12157453
0.07016191 -0.08742491 0.027842423 0.038984038 0.0019870934 0.016825343 -0.07146633 0.047908828
0.069971964 0.15455501 0.06086817 0.111377425 0.04406605 -0.08314567 -0.07323854 -0.040926643
-0.0040572532 0.13262552 0.08820181 0.07837911 -0.03057886 0.11102986 0.05934575 -0.07230241
0.03583235 -0.08634766 -0.056988306 -0.058155175 0.14319417 0.055787995 0.053264935 0.040500402
0.060748223 -0.032299805 0.030267688 -0.058898352 0.014651604 -0.03416618 -0.022197964 0.007626651
0.05932849 0.1112192 0.059096504 0.13883385 -0.0344965 -0.07361722 0.11867097 0.08844878
0.03484404 -0.009057092 -0.08609767 0.11228584 -0.026130054 0.07638517 -0.013414065 0.06942012
0.14635038 -0.037347667 0.124029174 0.1419322 0.050964616 0.10008926 0.15348661 -0.016170809
-0.023855468 -0.08747604 -0.06965926 0.11619347 0.10659486 0.03148058 0.006281496 -0.058012318
0.011650207 0.12049647 -0.027306566 0.08016721 0.035062145 0.052313946 0.10034769 0.1399613
0.12597826 0.095831014 -0.059130333 -0.018554697 0.07023234 0.13910301 0.052568786 0.10822241
-0.016261537 0.053143524 0.0816581 0.14453457 0.107852265 0.1043515 0.028498886 0.0653023
0.07292369 -0.08268375 0.10011804 -0.007097825 0.1350729 0.0979122 0.0538824 -0.07350445
-0.010833267 0.10771898 0.1086891 0.027528116 -0.068094425 0.0385874 0.12753046 0.10475698
0.040874947 -0.10473168 0.09730343 0.035149146 -0.018073302 0.012441497 0.07438937 -0.0598553
0.056854352 0.017626038 -0.12003331 -0.11015138 -0.1484619 -0.13421914 -0.0662049 -0.03515593
0.0720037 -0.117132165 0.10480545 -0.10753748 -0.045162812 0.014305976 0.018323941 0.09963494
-0.051024728 -0.084841266 -0.014177877 -0.048571993 -0.0577776 -0.12051765 -0.10856019 0.096209675
0.08606651 0.09074631 0.09811053 0.098033 -0.05160558 0.050019514 0.12237166 0.13318633
-0.010293837 -0.12412525 -0.0057846154 0.1498077 -0.15151027 0.0393121 0.12274838 0.10490328
-0.12820132 -0.15744846 -0.018834794 0.015699612 0.07557012 -0.150587 -0.12275859 0.11160949
-0.06679367 0.06879764 0.06379531 -0.1314229 0.08674342 -0.1578175 -0.0788877 -0.1108776
0.11852164 -0.013575421 0.12623158 0.036364682 0.06467281 0.093294434 -0.030347385 0.10378662
-0.010346692 0.04217095 -0.030210514 0.05024064 -0.058990598 0.16731624 0.09616226 -0.053678222
0.07977966 0.015493877 -0.08010801 0.013951064 0.039695304 0.15854512 -0.065714605 0.12541708
-0.03377428 0.045087855 -0.023342885 0.018201536 0.0049568675 -0.042982332 0.09545368 0.10836163
0.12667106 0.023873825 0.04397675 0.025930708 -0.028723469 -0.027850874 -0.0430743 0.08820891
0.10173617 0.031339023 -0.035251316 -0.06992733 0.04739164 -0.081104904 -0.019287905 0.039697625
0.117944576 0.0025972165 0.09252228 0.16837396 0.004516847 0.04071467 0.052448623 0.1616505
0.124812216 0.05613189 0.1311687 -0.011839763 0.1126575 0.05709841 0.06586401 0.12809473
00000000: fb9f 083e fdfc 873d 94b3 623c 145a a23d
00000010: fcc6 b5bd d8f8 45bd 3cb0 663d f99f 06bc
00000020: 2aa4 c63d 859c 123d 1eca 62bc 0fa6 143e
00000030: bcbb 5abb a901 f63d 5e77 ed39 11fc f83d
00000040: 0cb1 8f3d d50b b3bd cb15 e43c baad 1f3d
00000050: e539 023b 4dd5 893c f05c 92bd 0c3c 443d
00000060: 764d 8f3d ab43 1e3e e750 793d d919 e43d
00000070: 9a7e 343d 4748 aabd 16fe 95bd b2a2 27bd
00000080: b5f2 84bb fcce 073e 27a3 b43d 3a85 a03d
00000090: 8480 fabc a063 e33d 8714 733d 4913 94bd
000000a0: f1c4 123d 0bd7 b0bd 926c 69bd 1f34 6ebd
000000b0: 7ea1 123e f481 643d 552c 5a3d c0e3 253d
000000c0: 21d3 783d cd4c 04bd f1f3 f73c 663f 71bd
000000d0: 480d 703c d6f1 0bbd 81d8 b5bc fce8 f93b
000000e0: 6e02 733d e4c6 e33d 2d0f 723d 762a 0e3e
000000f0: 344c 0dbd a0c4 96bd c409 f33d a224 b53d
00000100: a0b8 0e3d 3264 14bc fa53 b0bd 1ef6 e53d
00000110: b20e d6bc d46f 9c3d abc6 5bbc 232c 8e3d
00000120: e0dc 153e def9 18bd 0203 fe3d ad56 113e
00000130: 46c0 503d 99fb cc3d 982b 1d3e a578 84bc
00000140: 8b6c c3bc a326 b3bd 84a9 8ebd d8f6 ed3d
00000150: 684e da3d c8f1 003d 02d5 cd3b 539e 6dbd
00000160: 83e0 3e3c dac6 f63d 05b2 dfbc b52e a43d
00000170: 539d 0f3d 2647 563d 1783 cd3d 0452 0f3e
00000180: 7200 013e 0d43 c43d a632 72bd 0500 98bc
00000190: f9d5 8f3d 0571 0e3e 5e52 573d b6a3 dd3d
000001a0: ea36 85bc 06ad 593d 5d3c a73d df00 143e
000001b0: a6e1 dc3d 3db6 d53d 7f76 e93c 36bd 853d
000001c0: 0459 953d 1956 a9bd b00a cd3d df94 e8bb
000001d0: 8d50 0a3e 3186 c83d cbb3 5c3d 8089 96bd
000001e0: 047e 31bc c59b dc3d 6498 de3d a582 e13c
000001f0: 1775 8bbd d20d 1e3d 5897 023e d48a d63d
00000200: 7d6c 273d 907d d6bd 0547 c73d 8df8 0f3d
00000210: 760e 94bc 6cd7 4b3c 7459 983d d52a 75bd
00000220: 1ce0 683d 7b64 903c 06d4 f5bd 0c97 e1bd
00000230: 6506 18be be70 09be 6f96 87bd aaff 0fbd
00000240: ad76 933d fde2 efbd 3da4 d63d 9c3c dcbd
00000250: a4fc 38bd 9d63 6a3c 171c 963c 670d cc3d
00000260: 4eff 50bd 42c1 adbd 544a 68bc 6df3 46bd
00000270: 34a8 6cbd f5d1 f6bd ce54 debd 9409 c53d
00000280: a343 b03d 34d9 b93d 2cee c83d 87c5 c83d
00000290: 5f60 53bd 43e1 4c3d fe9d fa3d ff61 083e
000002a0: 7ba7 28bc 6135 febd df8c bdbb 3167 193e
000002b0: 8225 1bbe b905 213d 8163 fb3d 88d7 d63d
000002c0: 3547 03be 2b3a 21be 6d4b 9abc 799c 803c
000002d0: 82c4 9a3d 7b33 1abe db68 fbbd 8493 e43d
000002e0: 1fcb 88bd c7e5 8c3d 1ea7 823d ba93 06be
000002f0: 89a6 b13d e99a 21be e08f a1bd cc13 e3bd
00000300: 79bb f23d 716b 5ebc da42 013e 22f3 143d
00000310: 2e73 843d 2711 bf3d 149b f8bc 148e d43d
00000320: 2c85 29bc 72bb 2c3d 0a7c f7bc 21c9 4d3d
00000330: 20a0 71bd f354 2b3e b8f0 c43d b2dd 5bbd
00000340: 8563 a33d 08da 7d3c ab0f a4bd 0193 643c
00000350: 8b97 223d a759 223e 6195 86bd 566d 003e
00000360: e656 0abd 0bae 383d 9439 bfbc 631b 953c
00000370: 386d a23b 3e0e 30bd 387d c33d b4ec dd3d
00000380: 0fb6 013e 0a93 c33c f720 343d a36c d43c
00000390: 7b4d ebbc 8427 e4bc ad6e 30bd dfa6 b43d
000003a0: 0e5b d03d 595d 003d af63 10bd 0f36 8fbd
000003b0: bc1d 423d 541a a6bd ab01 9ebc fa99 223d
000003c0: ed8c f13d 1036 2a3b 527c bd3d 396a 2c3e
000003d0: 0f02 943b 6dc4 263d 5ed4 563d b587 253e
000003e0: 8c9d ff3d 8dea 653d 1651 063e 91fb 41bc
000003f0: fab8 e63d 06e0 693d b6e3 863d 442b 033e

lstm.weight_ih_l1 f4 [256, 64]
0.123502985 -0.11065974 -0.02650903 0.045231998 0.11399085 0.016125126 -0.04068347 -0.0032371683
-0.068122715 0.08832311 -0.09525442 -0.07945813 0.08220188 -0.08031916 0.04679583 0.041415937
-0.04868315 0.027581727 -0.020764688 0.045687158 -0.114457786 0.019552546 0.076142326 0.07154822
-0.08664973 0.039727304 -0.08229558 0.030847952 -0.04519144 0.020102482 -0.13788712 0.052009705
0.07905656 -0.013284721 0.036137763 0.013402651 -0.03546315 0.014011735 -0.030928992 -0.02290749
-0.059804365 -0.08751464 0.038067117 -0.09704919 -0.044430364 0.006600937 -0.054624207 0.08608784
0.09066282 0.019096239 0.115771584 0.06689427 -0.10340762 0.035677824 0.09201016 -0.05586152
0.0260655 0.06902774 0.1019339 -0.07700694 -0.054145582 -0.04268642 0.071884155 -0.043861385
0.111833625 0.007406683 -0.087474905 0.013017989 0.0673236 0.0640191 -0.056300312 0.06920895
-0.07824163 -0.033075757 -0.1315493 -0.01229207 -0.041672807 0.08595824 0.018404197 -0.079412505
0.08871267 0.0012905649 0.011575292 -0.10270142 0.07208099 -0.030570311 -0.13809228 0.08527936
-0.01213073 -0.11769354 0.009012692 0.047954265 -0.0019483445 0.04428581 -0.1260365 -0.033613868
-0.056420952 0.10315367 0.12606685 -0.029442465 0.02351441 0.07073125 -0.04989796 0.08459935
0.1003987 0.02233927 -0.09246438 -0.08043864 -0.06963636 -0.014414115 0.10508097 -0.0804499
-0.09893796 -0.036152 0.010241674 0.022353828 -0.0452516 0.0053279796 -0.033802584 0.087683335
-0.0694822 0.105443835 0.054127205 -0.053702228 -0.08025163 -0.009964568 -0.03837611 0.05156577
0.1106156 0.07304279 -0.026769064 0.11032032 0.09510789 -0.024853831 -0.0052599846 -0.06001355
0.00025342504 0.05744107 -0.031231182 0.016473325 0.029460527 -0.09669285 -0.12627017 0.08631012
0.015499206 -0.14547175 0.023220168 -0.11256598 0.044442758 0.14152463 -0.009372365 0.073627904
-0.050729375 -0.14543408 -0.01916612 0.05423231 0.0790543 -0.033368055 -0.0042634928 0.07304791
0.14878803 0.14301616 0.077394545 0.08905536 -0.00014039494 -0.03026145 0.13284288 -0.0015946217
-0.07939468 0.062359497 -0.14523421 0.052845225 -0.061218243 0.017772002 0.032669652 0.15163288
-0.018056318 -0.13202792 -0.01760043 0.07029438 -0.046383433 0.039990366 0.041649807 0.11701118
-0.10125059 0.07820307 -0.050310455 -0.045945052 0.10452122 -0.017413761 -0.013853231 0.045509774
-0.028680487 0.016355436 -0.09768724 -0.037210334 0.046081536 -0.10799475 -0.062750205 -0.014844704
0.091926925 0.041948847 -0.081701286 0.0856417 -0.06861759 0.037156854 0.03622614 0.00067838066
0.042480618 0.019706823 0.10971484 -0.020973338 0.056097187 0.012239805 -0.060682002 0.017325796
0.057302043 -0.11602835 -0.11895478 -0.11837532 0.02976485 0.1331248 -0.04713308 -0.0009405442
0.08343196 -0.020770177 0.14257225 0.045817617 -0.13501735 -0.00094257545 0.11574943 0.09950078
0.08877597 0.06999329 -0.12956156 -0.025008848 0.010493242 0.08128999 -0.03411379 -0.042105637
-0.0057721063 -0.008853434 -0.04134832 0.09575849 0.07755389 0.060290214 -0.071818955 -0.08814146
0.0775286 0.011317076 0.1359115 -0.025416778 0.14135401 -0.12698357 -0.052337375 -0.048134837
00000000: 22ef fc3d 93a1 e2bd 7729 d9bc 3045 393d
00000010: 0974 e93d d718 843c b6a3 26bd ac26 54bb
00000020: ec83 8bbd bfe2 b43d c014 c3bd f2ba a2bd
00000030: 7659 a83d 5f7e a4bd fcac 3f3d c2a3 293d
00000040: fc67 47bd 13f3 e13c b51a aabc 7522 3b3d
00000050: d868 eabd a92c a03c 82f0 9b3d e087 923d
00000060: 6a75 b1bd 19b9 223d 968a a8bd d8b4 fc3c
00000070: a91a 39bd f6ad a43c 4832 0dbe 2108 553d
00000080: 68e8 a13d 29a8 59bc 3105 143d cb96 5b3c
00000090: cf41 11bd 7a91 653c cc5e fdbc 7da8 bbbc
000000a0: 6cf5 74bd e03a b3bd 44ec 1b3d bac1 c6bd
000000b0: 9dfc 35bd ac4c d83b a2bd 5fbd d24e b03d
000000c0: 6ead b93d b76f 9c3c a719 ed3d ddff 883d
000000d0: 60c7 d3bd e922 123d d36f bc3d 0dcf 64bd
000000e0: 5187 d53c 6a5e 8d3d b8c2 d03d d1b5 9dbd
000000f0: c2c7 5dbd f5d7 2ebd 0038 933d ffa7 33bd
00000100: 0709 e53d c3b3 f23b 0b26 b3bd 6749 553c
00000110: f5e0 893d 721c 833d 289b 66bd 6cbd 8d3d
00000120: 263d a0bd 727a 07bd dcb4 06be ae64 49bc
00000130: 1bb1 2abd e00a b03d 66c4 963c 06a3 a2bd
00000140: fdae b53d 2c28 a93a 4ba6 3d3c 1f55 d2bd
00000150: 339f 933d 976e fabc 1068 0dbe f2a6 ae3d
00000160: f8bf 46bc 5009 f1bd f8a9 133c b16b 443d
00000170: 985f ffba 0a65 353d b60f 01be b2ae 09bd
00000180: a819 67bd 3b42 d33d ab17 013e 5331 f1bc
00000190: 4ba1 c03c 8cdb 903d ce61 4cbd 6d42 ad3d
000001a0: d59d cd3d d800 b73c f75d bdbd 04bd a4bd
000001b0: 829d 8ebd 2e29 6cbc b134 d73d ebc2 a4bd
000001c0: fc9f cabd 1f14 14bd b2cc 273c 601f b73c
000001d0: be59 39bd 5596 ae3b 9474 0abd 5293 b33d
000001e0: af4c 8ebd f0f2 d73d 7db4 5d3d def6 5bbd
000001f0: f75a a4bd 6d42 23bc 4530 1dbd a136 533d
00000200: 6f8a e23d 7597 953d cc4a dbbc 9fef e13d
00000210: edc7 c23d 439a cbbc f35b acbb c5d0 75bd
00000220: 22de 8439 5447 6b3d 89d8 ffbc 11f3 863c
00000230: 3457 f13c e706 c6bd f84c 01be 5cc3 b03d
00000240: 62f0 7d3c 8cf6 14be 3938 be3c fe88 e6bd
00000250: 9c09 363d d5eb 103e 8c8e 19bc 3aca 963d
00000260: 9bc9 4fbd acec 14be 4402 9dbc b322 5e3d
00000270: 39e7 a13d f1ac 08bd c5b4 8bbb 259a 953d
00000280: e45b 183e d472 123e 0881 9e3d a862 b63d
00000290: fb36 13b9 dce6 f7bc f707 083e a002 d1ba
000002a0: ae99 a2bd ac6c 7f3d 47b8 14be 3c74 583d
000002b0: fbbf 7abd 9796 913c 9dd0 053d a645 1b3e
000002c0: d8ea 93bc 5432 07be c72e 90bc 80f6 8f3d
000002d0: 8efc 3dbd f0cc 233d fd98 2a3d 8fa3 ef3d
000002e0: 785c cfbd ee28 a03d 5612 4ebd e130 3cbd
000002f0: 390f d63d 4ea7 8ebc aaf8 62bc 7568 3a3d
00000300: 57f3 eabc d6fb 853c 3f10 c8bd dd69 18bd
00000310: febf 3c3d 5a2c ddbd 2e83 80bd 3437 73bc
00000320: 2f44 bc3d 8ed2 2b3d 0153 a7bd ea64 af3d
00000330: 6187 8cbd c931 183d dc61 143d 5bd5 313a
00000340: 2800 2e3d 3470 a13c 2db2 e03d 47d0 abbc
00000350: 2ac6 653d 7789 483c b18d 78bd d4ee 8d3c
00000360: 8cb5 6a3d 46a0 edbd 909e f3bd c36e f2bd
00000370: 6ad5 f33c de51 083e 9e0e 41bd da8e 76ba
00000380: 60de aa3d 3826 aabc 76fe 113e 41ab 3b3d
00000390: fd41 0abe 2b17 77ba 0a0e ed3d 11c7 cb3d
000003a0: 2dd0 b53d a458 8f3d c9ab 04be 5bdf ccbc
000003b0: d9eb 2b3c 5e7b a63d e7ba 0bbd f676 2cbd
000003c0: f023 bdbb fe0d 11bc db5c 29bd 071d c43d
000003d0: 93d4 9e3d dff2 763d d115 93bd 8383 b4bd
000003e0: 51c7 9e3d 426b 393c 622c 0b3e d936 d0bc
000003f0: 1bbf 103e fb07 02be b75f 56bd 0929 45bd

lstm.weight_hh_l1 f4 [256, 64]
0.038418584 -0.07513906 0.0130310515 -0.09419935 -0.07304968 0.041463885 -0.13059242 0.040089548
-0.093416214 -0.06208066 -0.03339924 0.04288407 -0.040880907 -0.097672656 -0.14574927 -0.063396566
-0.039852507 -0.1382573 0.030147165 -0.08851884 0.048070714 -0.078445 0.07593051 -0.102232285
-0.14403225 0.06602854 0.11857275 0.12505142 0.09739703 -0.06864232 -0.1447696 -0.10191657
0.038945355 0.1173734 0.056635402 -0.094280854 0.09882048 -0.064696446 0.009017176 -0.04309207
-0.010363297 0.05792142 0.022043042 0.008618599 0.012119173 0.06736832 -0.14235823 -0.00549455
-0.017884202 -0.02465397 -0.10292233 0.08698079 -0.013398095 0.11537471 0.062583916 -0.08515911
-0.04281551 -0.043006163 0.07810638 0.01900081 0.05068138 -0.045152973 0.050618682 -0.032769606
0.077039726 -0.04812876 -0.007366559 0.095995486 -0.07555939 -0.037485804 -0.09546615 0.13773808
-0.091186285 -0.11689965 0.10117165 0.15201335 0.0477061 -0.12918119 -0.007883859 -0.050259445
0.056853913 -0.042291503 -0.017917803 -0.08550444 0.090283275 0.069632545 0.10745073 -0.13160223
0.06623536 0.06245505 -0.030443711 -0.03925908 0.035812896 0.10578802 0.067511864 -0.09872181
-0.010507707 0.121325426 0.034560576 0.06396127 -0.0025680366 -0.097342096 0.12053064 -0.0653489
0.13835514 -0.036136825 -0.008011842 0.08198517 -0.12223238 0.03789525 -0.10410295 -0.038696833
0.040725205 0.011703219 0.05499025 0.15270242 0.008367826 -0.08007896 -0.08016891 0.1525921
-0.09467031 -0.058858752 -0.053830422 -0.07794035 0.06660073 0.09289533 0.0806323 -0.000825264
-0.14223392 0.05838707 0.038394026 -0.022519128 -0.13292797 -0.103395626 -0.12862888 -0.11325555
-0.039605487 -0.11675048 -0.12606204 -0.00769616 0.080268465 -0.0119327 -0.03965057 0.047772463
0.11116703 0.090278015 -0.05151671 -0.06650075 -0.0671248 0.080831476 -0.08682055 -0.07192085
-0.016759621 -0.08594131 0.07793706 0.15362264 -0.03751561 0.08768773 -0.12937602 0.056252792
0.051229242 -0.067491256 0.012979999 0.08622119 0.00033117115 -0.025717624 -0.09231697 0.07219607
0.018560823 -0.003422426 -0.03447079 -0.07544304 -0.10037679 0.024921203 -0.010764032 0.034099504
0.12499887 0.0856676 0.0362126 0.04885387 0.04551728 0.1487072 0.025008544 0.1145872
0.08313285 -0.03835273 -0.12939127 -0.014055506 -0.026315358 -0.12467412 -0.04083848 -0.1298057
-0.06250965 -0.043138266 -0.015418337 -0.009956175 0.07222098 -0.07411598 -0.06620031 0.052681647
-0.005010501 0.095827326 -0.06682769 -0.020336391 -0.10542822 -0.07855447 0.0030442667 0.015586152
0.06372878 0.024544131 -0.15043975 0.10198339 0.07071276 -0.0045677675 -0.0433807 -0.11926286
-0.1462273 -0.09078051 0.035747748 -0.07388754 0.023596905 -0.018389324 -0.087396674 -0.057045944
0.07509083 -0.090333015 -0.13887696 -0.04694431 -0.09871472 -0.055692755 -0.037131116 -0.16060404
-0.063155115 0.02110572 0.052675087 -0.06419412 -0.05683372 -0.046301432 0.05692023 0.016464293
0.12483126 -0.02882202 0.011431059 0.06382743 0.04282781 0.00019812958 0.021184053 0.10359923
0.054415632 -0.054486066 0.0020881586 -0.11496414 0.058490817 0.015501776 -0.08695792 -0.024383018
00000000: ce5c 1d3d 82e2 99bd 3180 553c 97eb c0bd
00000010: 129b 95bd 09d6 293d 05ba 05be f034 243d
00000020: 0051 bfbd 4a48 7ebd a4cd 08bd 35a7 2f3d
00000030: bd72 27bd 9a08 c8bd 4c3f 15be 0fd6 81bd
00000040: 623c 23bd 5293 0dbe 30f7 f63c 5e49 b5bd
00000050: cce5 443d c6a7 a0bd 7581 9b3d 295f d1bd
00000060: 317d 13be f939 873d 45d6 f23d 7b0d 003e
00000070: 1878 c73d 5894 8cbd 7b3e 14be a2b9 d0bd
00000080: 2a85 1f3d 7761 f03d 86fa 673d 5216 c1bd
00000090: 6462 ca3d 927f 84bd c7bc 133c 4f81 30bd
000000a0: d1ca 29bc 033f 6d3d 9c93 b43c 0635 0d3c
000000b0: 7f8f 463c 67f8 893d 5bc6 11be a00b b4bb
000000c0: e481 92bc 1ff7 c9bc f1c8 d2bd fc22 b23d
000000d0: af83 5bbc 9349 ec3d ff2b 803d e667 aebd
000000e0: 515f 2fbd 3b27 30bd 3df6 9f3d 96a7 9b3c
000000f0: 4797 4f3d 53f2 38bd 8955 4f3d 6c39 06bd
00000100: 01c7 9d3d aa22 45bd 2d63 f1bb 4899 c43d
00000110: e2be 9abd b78a 19bd c283 c3bd 360b 0d3e
00000120: e0bf babd 1569 efbd 1533 cf3d 63a9 1b3e
00000130: 7967 433d 1348 04be 4d2b 01bc d9dc 4dbd
00000140: a6df 683d db39 2dbd 5bc8 92bc f41c afbd
00000150: 70e6 b83d 829b 8e3d 210f dc3d bcc2 06be
00000160: 68a6 873d ded0 7f3d 1765 f9bc 21ce 20bd
00000170: 8bb0 123d 64a7 d83d a943 8a3d a92e cabd
00000180: 8428 2cbc 7779 f83d 648f 0d3d 20fe 823d
00000190: 814c 28bb 4b5b c7bd c5d8 f63d a5d5 85bd
000001a0: f8ac 0d3e 3504 14bd 1a44 03bc d7e7 a73d
000001b0: f854 fabd 0d38 1b3d ed33 d5bd 9280 1ebd
000001c0: 79cf 263d dcbe 3f3c 753d 613d 065e 1c3e
000001d0: 3519 093c 7000 a4bd 992f a4bd 1a41 1c3e
000001e0: 82e2 c1bd e015 71bd 4a7d 5cbd 319f 9fbd
000001f0: f765 883d e83f be3d 8c22 a53d 8856 58ba
00000200: c5a5 11be 4827 6f3d 0e43 1d3d 097a b8bc
00000210: 451e 08be 16c1 d3bd 4ab7 03be 87f2 e7bd
00000220: 5d39 22bd e01a efbd 6816 01be 1230 fcbb
00000230: cb63 a43d 5f81 43bc a368 22bd 0fad 433d
00000240: 8aab e33d aee3 b83d 3003 53bd 8c31 88bd
00000250: ba78 89bd f98a a53d f9ce b1bd 3d4b 93bd
00000260: 794b 89bc ff01 b0bd 779d 9f3d 414f 1d3e
00000270: f8a9 19bd a095 b33d 267b 04be 5469 663d
00000280: c1d5 513d db38 8abd 10aa 543c bc94 b03d
00000290: 0aa1 ad39 c4ad d2bc ae10 bdbd 88db 933d
000002a0: de0c 983c c84a 60bb 3e31 0dbd e181 9abd
000002b0: 5992 cdbd 8d27 cc3c 9f5b 30bc ecab 0b3d
000002c0: 68ff ff3d 7f72 af3d aa53 143d ff1a 483d
000002d0: 5470 3a3d b346 183e b8de cc3c b2ac ea3d
000002e0: 8e41 aa3d c117 1dbd 257f 04be 1149 66bc
000002f0: 4e93 d7bc 2555 ffbd 4046 27bd c9eb 04be
00000300: 0f05 80bd c0b1 30bd 319d 7cbc 3a1f 23bc
00000310: 98e8 933d 1eca 97bd 0794 87bd b6c8 573d
00000320: 212f a4bb 1e41 c43d f5dc 88bd 8198 a6bc
00000330: c0ea d7bd 2ae1 a0bd 5282 473b 0f5d 7f3c
00000340: 3c84 823d c610 c93c e10c 1abe abdc d03d
00000350: dad1 903d 36ad 95bb f6af 31bd 1640 f4bd
00000360: 9cbc 15be 22eb b9bd 3b6c 123d 5a52 97bd
00000370: 4c4e c13c 35a5 96bc 07fd b2bd 02a9 69bd
00000380: 39c9 993d 8400 b9bd c335 0ebe ad48 40bd
00000390: f12a cabd 161e 64bd cc16 18bd 6375 24be
000003a0: 7857 81bd e7e5 ac3c d5c1 573d 3578 83bd
000003b0: 7aca 68bd 92a6 3dbd 3025 693d 20e0 863c
000003c0: 88a7 ff3d 281c ecbc 5649 3b3c f5b7 823d
000003d0: 376c 2f3d 01c1 4f39 2e8a ad3c d52b d43d
000003e0: ede2 5e3d c82c 5fbd 7dd9 083b 5272 ebbd
000003f0: 1194 6f3d 29fb 7d3c fe16 b2bd e5be c7bc

lstm.bias_ih_l1 f4 [256]
0.050490644 -0.09923844 0.04215395 -0.008386559 0.030667206 0.037697315 0.075039804 0.09825896
-0.0659155 -0.0028969147 0.038532186 0.021753225 -0.09626283 0.05651537 -0.019820767 0.15201673
0.1037031 0.13813661 -0.020093681 0.1328159 -0.028444465 -0.014103398 0.09102401 0.12904358
0.06001063 0.13092332 0.045966826 0.023126591 -0.0008212987 0.1454763 0.018813929 0.11706171
0.081293665 0.037191674 0.056453604 0.010415367 0.008840353 0.1167225 0.05840282 -0.0462407
0.056267485 0.116110034 0.08033951 0.10684342 0.025502551 0.042405058 -0.10070762 0.10521785
0.11048852 0.14863181 0.1477998 0.040687185 -0.013881271 0.048962336 0.06323333 -0.064212754
0.061008167 -0.060652934 0.03612368 0.094790585 0.06973352 0.06073719 0.15551716 0.035240058
-0.023863925 0.13970272 0.054973625 -0.048587497 0.09662396 -0.0054600043 0.0786403 -0.007931402
-0.013644009 0.0015694196 -0.029393923 0.081314124 0.14030334 0.12508436 -0.060635835 0.14525352
-0.011703489 0.11625183 -0.06860547 -0.028712675 0.14498445 0.032680288 -0.0013233917 0.09706424
0.03236173 -0.063038275 0.040315297 0.07205341 0.10087266 0.14207588 -0.06859354 -0.062435806
-0.08615452 0.120111465 -0.006158003 0.06477713 -0.021248424 -0.02179971 0.14266537 0.11394613
-0.09031091 0.14856917 0.08343949 0.030191021 -0.10463269 -0.012945624 0.11217131 -0.07970487
0.11386865 -0.056299493 0.008230534 0.03948719 -0.012206953 0.05095022 0.052549805 0.07753574
0.10530884 -0.001698818 0.033412207 0.003004373 0.12886065 0.026958724 -0.05939141 -0.08565865
0.088767394 -0.00032568723 -0.10108825 0.02986192 -0.10932393 0.017509902 -0.13809258 -0.076603204
-0.016239857 -0.10692529 -0.11784039 -0.070255816 -0.011958048 -0.12306007 0.047916654 0.09621512
-0.05273042 0.013863677 -0.014457193 0.053566452 -0.08498983 0.03650913 0.013576504 -0.076875985
-0.14097074 -0.018071111 0.08307195 0.15062875 0.096169904 0.03306908 -0.06143781 0.12085939
-0.09109264 0.00082670053 -0.00887689 0.01597043 -0.084188834 0.015286312 0.10412727 -0.07825802
0.0716939 0.0030675922 0.07541149 0.095727675 0.029525783 0.061115146 0.089056656 0.014067055
0.12758179 0.10179604 0.14127041 -0.02627012 -0.06737537 0.15039957 -0.071069025 -0.08269444
0.09487151 -0.016644273 -0.013926046 -0.14831086 0.06900246 -0.03779613 0.026545763 -0.045967735
0.15467994 0.17473216 0.014466823 0.046815634 -0.020735702 0.11222317 0.09816044 0.02971908
0.052651636 0.026676565 0.010931001 0.04546382 -0.0035828971 0.090638444 0.14596832 0.0027479266
0.0021015827 0.18122587 0.02586101 0.07615465 0.14665942 0.0055223755 0.026819373 0.08493759
-0.02854789 0.1559099 0.032856595 -0.05242895 -0.028400866 0.057200562 0.1570885 0.07065849
0.042017967 0.14248218 -0.016596042 0.07915399 0.054199435 0.15773007 0.1599715 0.041990377
-0.037540723 0.13631417 0.1365737 0.1520874 0.17044792 0.08431472 0.16746932 0.038644798
0.1084392 0.031426977 0.18499383 0.027866216 0.15633723 0.16396636 0.1492848 0.1726298
0.013199816 0.030881247 0.1211051 0.16918738 -0.010287643 0.09855805 0.08208386 0.15731783
00000000: 47cf 4e3d 863d cbbd 9fa9 2c3d c767 09bc
00000010: cb39 fb3c 8068 1a3d 78ae 993d fe3b c93d
00000020: b5fe 86bd 2ada 3dbb edd3 1d3d d233 b23c
00000030: 7225 c5bd a97c 673d 295f a2bc 46aa 1b3e
00000040: 4a62 d43d af73 0d3e 819b a4bc e400 083e
00000050: 5e04 e9bc f011 67bc cc6a ba3d 0024 043e
00000060: b5cd 753d c310 063e b647 3c3d fa73 bd3c
00000070: 6c4c 57ba bdf7 143e ab1f 9a3c 0dbe ef3d
00000080: 4b7d a63d 4c56 183d e53b 673d 37a5 2a3c
00000090: 21d7 103c 350c ef3d cc37 6f3d e366 3dbd
000000a0: bc78 663d 19cb ed3d 0b89 a43d b9d0 da3d
000000b0: baea d03c edb0 2d3d cc3f cebd 757c d73d
000000c0: ce47 e23d f032 183e d558 173e 9ba7 263d
000000d0: 456e 63bc bb8c 483d 7a80 813d fa81 83bd
000000e0: b3e3 793d 366f 78bd 6df6 133d 9121 c23d
000000f0: 73d0 8e3d 8fc7 783d e43f 1f3e e157 103d
00000100: 477e c3bc 3b0e 0f3e 062c 613d af03 47bd
00000110: c8e2 c53d d6e9 b2bb 2a0e a13d b6f2 01bc
00000120: 1f8b 5fbc fcb4 cd3a 86cb f0bc 0588 a63d
00000130: aeab 0f3e 1d16 003e 485d 78bd 57bd 143e
00000140: febf 3fbc 7015 ee3d 0681 8cbd d836 ebbc
00000150: ce76 143e c4db 053d a875 adba 9ec9 c63d
00000160: bc8d 043d 361a 81bd a721 253d bd90 933d
00000170: 5396 ce3d 577c 113e c57a 8cbd b0bc 7fbd
00000180: c871 b0bd 00fd f53d 13c9 c9bb dfa9 843d
00000190: 2d11 aebc 4e95 b2bc df16 123e 975c e93d
000001a0: edf4 b8bd 8422 183e 53e2 aa3d 2953 f73c
000001b0: aa49 d6bd e219 54bc 12ba e53d 4f3c a3bd
000001c0: f733 e93d 4c9a 66bd 5dd9 063c 52bd 213d
000001d0: acff 47bc 2eb1 503d 773e 573d 0fcb 9e3d
000001e0: 29ac d73d e0aa deba 3ddb 083d 04e5 443b
000001f0: 0cf4 033e 8bd8 dc3c 6844 73bd cd6d afbd
00000200: aecb b53d 00c1 aab9 5b07 cfbd fca0 f43c
00000210: 3ae5 dfbd ed70 8f3c 2468 0dbe 24e2 9cbd
00000220: 7309 85bc a5fb dabd 4d56 f1bd 48e2 8fbd
00000230: b0eb 43bc eb06 fcbd 4144 443d 6f0c c53d
00000240: dafb 57bd 7a24 633c dddd 6cbc 7f68 5b3d
00000250: 260f aebd 998a 153d fc6f 5e3c 2871 9dbd
00000260: a25a 10be de09 94bc a021 aa3d 6c3e 1a3e
00000270: baf4 c43d 7273 073d 37a6 7bbd 2185 f73d
00000280: c78e babd efb6 583a 6070 11bc 6bd4 823c
00000290: 326b acbd 7173 7a3c ae40 d53d be45 a0bd
000002a0: 40d4 923d a809 493b 5771 9a3d df0c c43d
000002b0: 0ee0 f13c e053 7a3d 5663 b63d 8179 663c
000002c0: cda4 023e 717a d03d 31a9 103e 6f34 d7bc
000002d0: 19fc 89bd 5802 1a3e a38c 91bd b45b a9bd
000002e0: ff4b c23d 9259 88bc 122a 64bc cdde 17be
000002f0: 2951 8d3d 1dd0 1abd 8076 d93c aa48 3cbd
00000300: 6b64 1e3e fdec 323e 4106 6d3c c0c1 3f3d
00000310: ebdd a9bc 43d5 e53d 5708 c93d 6e75 f33c
00000320: 3ea9 573d d088 da3c f117 333c 4538 3a3d
00000330: 0acf 6abb a6a0 b93d b878 153e 8f16 343b
00000340: b5ba 093b 4693 393e 78da d33c f8f6 9b3d
00000350: e32d 163e 0bf5 b43b 4db4 db3c c2f3 ad3d
00000360: 44dd e9bc d8a6 1f3e a394 063d bdbf 56bd
00000370: efa8 e8bc 234b 6a3d cfdb 203e 66b5 903d
00000380: 081b 2c3d d9e6 113e 6cf4 87bc 7d1b a23d
00000390: 3a00 5e3d fe83 213e 92cf 233e 1afe 2b3d
000003a0: 4dc4 19bd f195 0b3e fad9 0b3e cdbc 1b3e
000003b0: e689 2e3e 32ad ac3d 147d 2b3e 024a 1e3d
000003c0: 5f15 de3d 93b9 003d 066f 3d3e b147 e43c
000003d0: de16 203e cce6 273e 1dde 183e dec5 303e
000003e0: 0b44 583c abfa fc3c f305 f83d 753f 2d3e
000003f0: 818d 28bc ced8 c93d 951b a83d ed17 213e

lstm.bias_hh_l1 f4 [256]
0.048574224 -0.10195018 -0.06781312 -0.057700343 0.13281164 0.055558607 -0.08249065 0.04562753
-0.06472396 -0.0102938665 0.1262535 0.129514 -0.021265222 -0.017925434 0.040465176 0.08976789
0.10305056 -0.017187268 0.030776327 0.10925848 0.11329199 -0.10019798 0.1438919 0.13758409
-0.04754715 0.12547286 -0.023560915 -0.014776086 0.05107317 0.12225954 0.006695008 -0.058935765
-0.06581127 0.041270044 -0.0059092916 0.037803132 0.03789944 0.022422876 -0.015559926 -0.020047517
0.13772207 -0.08877135 0.002894488 0.06761774 0.03026157 0.14816098 0.13991456 -0.025315288
0.055474434 -0.070828415 -0.06426349 0.03317463 0.03377353 -0.07635316 0.12472514 -0.066396475
0.061451774 0.13346894 0.018185845 0.06257034 -0.05590664 0.11618986 0.026664251 -0.029373646
0.04628582 -0.10446618 0.09937809 0.06177149 -0.0005763047 0.1370826 -0.02465804 -0.00043849472
0.04960984 -0.033581953 0.064743705 -0.030714253 0.14571902 0.14248946 -0.03648802 0.041222695
0.05609303 0.010572652 -0.0562533 0.048434015 -0.038091004 -0.024505995 0.11866503 -0.01817054
-0.048061866 -0.05869325 -0.060552433 -0.06947123 0.13393727 0.10136553 0.099966295 0.15633097
0.122330055 0.02591855 0.13581711 -0.03419957 0.07331415 0.0772508 0.0903881 0.060941935
-0.04702945 0.13000092 0.09837141 0.14644101 0.095076665 -0.05567407 -0.053850677 0.08454987
0.052704655 0.0072831027 0.14856645 -0.07693355 -0.085203655 0.055100985 -0.04132567 0.0984036
0.08558618 -0.05523652 -0.08406014 -0.055737123 0.025727665 -0.031143742 0.098745905 0.010314775
-0.043012597 -0.06324075 -0.07599862 0.005326615 0.06940374 -0.09388222 -0.019018559 0.027985632
-0.13068771 -0.10899977 -0.090801425 -0.08171062 0.056565247 -0.08404886 0.055612125 -0.04441292
-0.01410004 -0.016216818 -0.085535355 0.0069965636 -0.0070283795 -0.019508746 0.018890118 -0.014811924
0.044888996 0.1117941 -0.058003426 0.084220305 -0.06328299 0.0876192 -0.12294207 -0.07743604
0.08935003 -0.0019275127 -0.0926136 -0.11546375 -0.017344328 0.07404117 0.074670754 0.06297078
-0.0114989355 0.15150306 -0.07853822 -0.047116693 -0.02320599 0.064908706 -0.08059758 0.08044203
0.011065778 0.022789365 -0.08630923 0.10028607 -0.091997035 0.054430433 -0.06929157 -0.069675565
-0.034860764 -0.001783598 -0.050655857 0.07227943 0.055166416 0.019019568 -0.09209725 -0.09190702
0.05331685 0.053426437 0.15054041 0.017289218 0.005579153 0.0060275965 0.013775881 0.18659176
0.02622181 0.052249443 -0.015942091 0.038257897 0.15906195 0.19322288 0.045295745 -0.008957933
0.16356826 0.05868272 0.08417206 0.072598055 -0.013950035 0.031989012 0.14421995 0.11731316
0.07704679 0.19704312 -0.02673593 0.034131166 0.041796993 0.062003765 0.13543177 0.070151575
0.036458157 0.11485935 -0.024735242 -0.007879731 0.004220452 0.13178068 0.1551231 0.11147577
0.0096134655 0.02270407 -0.01892238 0.19609791 0.1430281 0.018944543 0.0056633116 0.022693593
-0.015489015 0.011421593 0.12791626 0.088878475 -0.058291197 0.12775132 0.08994257 -0.029054185
-0.018209305 0.08766381 0.09981685 0.09678845 0.050336804 0.14654829 -0.033332992 0.0019305333
00000000: c4f5 463d 42cb d0bd 9be1 8abd 3257 6cbd
00000010: c6ff 073e 6c91 633d dcf0 a8bd efe3 3a3d
00000020: ff8d 84bd 9ba7 28bc 9948 013e 519f 043e
00000030: 6734 aebc 5cd8 92bc d0be 253d 3ad8 b73d
00000040: 2c0c d33d 50cc 8cbc a31e fc3c e9c2 df3d
00000050: a105 e83d 9934 cdbd 6658 133e d8e2 0c3e
00000060: cdc0 42bd f57b 003e d202 c1bc 6617 72bc
00000070: 1a32 513d 3663 fa3d cc61 db3b a166 71bd
00000080: 0fc8 86bd c70a 293d bba2 c1bb 75d7 1a3d
00000090: 713c 1b3d 2eb0 b73c 0fef 7ebc b13a a4bc
000000a0: 0407 0d3e c1cd b5bd 73b1 3d3b 2b7b 8a3d
000000b0: 1de7 f73c 83b7 173e c345 0f3e 0262 cfbc
000000c0: 2939 633d 7d0e 91bd 949c 83bd 1fe2 073d
000000d0: 1d56 0a3d 0c5f 9cbd e56f ff3d e0fa 87bd
000000e0: dbb4 7b3d 15ac 083e 7bfa 943c e124 803d
000000f0: 5cfe 64bd f3f4 ed3d fd6e da3c 00a1 f0bc
00000100: 3396 3d3d 5df2 d5bd bd86 cb3d 1a04 7d3d
00000110: 2713 17ba 625f 0c3e a8ff c9bc c4e5 e5b9
00000120: b033 4b3d 3b8d 09bd 5998 843d 759c fbbc
00000130: 5e37 153e c2e8 113e 7674 15bd 21d9 283d
00000140: cec1 653d eb38 2d3c dc69 66bd bf62 463d
00000150: 5005 1cbd ccc0 c8bc a706 f33d 62da 94bc
00000160: 85dc 44bd 5568 70bd d405 78bd ef46 8ebd
00000170: da26 093e bb98 cf3d 21bb cc3d 3a15 203e
00000180: 2e88 fa3d 2453 d43c a413 0b3e d914 0cbd
00000190: bb25 963d ab35 9e3d 651d b93d 409e 793d
000001a0: f4a1 40bd f61e 053e f376 c93d a2f4 153e
000001b0: 8eb7 c23d 7e0a 64bd 8792 5cbd 7b28 ad3d
000001c0: d6e0 573d 18a7 ee3b ce21 183e 568f 9dbd
000001d0: 417f aebd 92b1 613d 1b45 29bd d487 c93d
000001e0: cf47 af3d b03f 62bd b927 acbd 9c4c 64bd
000001f0: d3c2 d23c 2921 ffbc 4b3b ca3d 4dff 283c
00000200: fa2d 30bd 5e84 81bd 2aa5 9bbd e38a ae3b
00000210: 8c23 8e3d 5245 c0bd cfcc 9bbc 2042 e53c
00000220: 00d3 05be 453b dfbd 19f6 b9bd e657 a7bd
00000230: f6b0 673d cf21 acbd 8ac9 633d 52ea 35bd
00000240: db03 67bc 22d9 84bc 292d afbd 6e43 e53b
00000250: 524e e6bb ced0 9fbc 73bf 9a3c b6ad 72bc
00000260: 86dd 373d 4ef4 e43d 0095 6dbd b27b ac3d
00000270: 839a 81bd b271 b33d 0dc9 fbbd c996 9ebd
00000280: 26fd b63d 98a4 fcba 33ac bdbd 4278 ecbd
00000290: b115 8ebc e6a2 973d fbec 983d d3f6 803d
000002a0: 0866 3cbc 9e23 1b3e a5d8 a0bd 6ffd 40bd
000002b0: 7d1a bebc dbee 843d 5810 a5bd cbbe a43d
000002c0: 3d4d 353c c3b0 ba3c e5c2 b0bd c862 cd3d
000002d0: f168 bcbd 72f2 5e3d bde8 8dbd 10b2 8ebd
000002e0: 29ca 0ebd 9ec7 e9ba 847c 4fbd 3d07 943d
000002f0: 2ef6 613d edce 9b3c 7c9d bcbd bf39 bcbd
00000300: c562 5a3d aed5 5a3d 4427 1a3e 1ea2 8d3c
00000310: 54d1 b63b 2583 c53b 3cb4 613c e911 3f3e
00000320: 1fcf d63c 8303 563d fd98 82bc 50b4 1c3d
00000330: 23e1 223e 38dc 453e 0888 393d 4bc4 12bc
00000340: 707e 273e 4b5d 703d 6762 ac3d 4aae 943d
00000350: b08e 64bc e906 033d 65ae 133e e241 f03d
00000360: b5ca 9d3d acc5 493e 4f05 dbbc 1fcd 0b3d
00000370: 5333 2b3d a9f7 7d3d a0ae 0a3e a1ab 8f3d
00000380: 2655 153d 613b eb3d 90a1 cabc fd19 01bc
00000390: b84b 8a3b 84f1 063e 97d8 1e3e 694d e43d
000003a0: cc81 1d3c e3fd b93c 1b03 9bbc e4cd 483e
000003b0: f575 123e 9631 9b3c 4d93 b93b eae7 b93c
000003c0: a3c5 7dbc a221 3b3c 7bfc 023e eb05 b63d
000003d0: c0c2 6ebd 3ed1 023e cf33 b83d 0b03 eebc
000003e0: ae2b 95bc 1589 b33d c76c cc3d 0639 c63d
000003f0: f72d 4e3d c110 163e 2d88 08bd f309 fd3a
