model & ai/models/rul_gru.pth (torch, 157317 bytes, 9 tensors)

gru.weight_ih_l0 f4 [192, 4]
-0.112818435 0.010789302 0.03060815 0.01612391 0.0067047826 0.057346992 0.01058951 0.027769106
-0.046360984 0.011872365 -0.08080531 0.20003788 -0.115509994 0.019228121 -0.09933396 -0.01279013
-0.026943887 0.15977971 -0.015913513 -0.106527545 -0.057898823 -0.0063060173 0.06425465 -0.07476094
-0.095926754 -0.03285236 0.021355202 -0.19601318 -0.13178667 0.026710078 -0.03416452 0.004828437
0.0055512222 -0.075965665 -0.059819113 -0.045118213 -0.082676336 -0.04314554 -0.12941174 -0.120257355
-0.050935913 0.020132752 -0.0860214 -0.14237803 0.15256967 0.13401522 -0.019023487 -0.11128836
-0.009737016 -0.082214035 -0.15162659 0.008796946 0.04685598 -0.08073677 -0.016407335 0.25346968
-0.011643281 0.120475255 -0.029162453 -0.018438151 0.083319776 0.14805683 -0.061942153 -0.016234884
-0.1261817 -0.113071024 -0.024764504 0.008976042 0.038970683 -0.044956103 0.11441606 0.20059747
-0.22001615 -0.19866085 -0.22122946 0.05184595 -0.014848835 0.10908114 -0.040412616 0.0049119415
-0.04190147 0.06946073 0.09674181 0.110765785 0.12198996 0.054400153 -0.056916855 0.23624143
0.12640496 -0.032124445 -0.06562788 -0.13940717 0.070190474 -0.07432509 0.0073638563 -0.12467568
0.017473787 0.047705818 -0.11373205 0.024529982 0.039699256 0.04690862 0.05748452 -0.16189915
-0.02866835 -0.07386054 0.057592247 -0.049515415 0.03515968 -0.07885338 0.13164836 -0.05621654
0.015110413 0.07015206 -0.11224632 -0.09298589 0.0035800121 -0.09052657 -0.0045801653 -0.118679956
0.12704818 -0.035970174 -0.015673129 -0.18295826 -0.05270107 -0.04029235 -0.086136624 -0.01840875
-0.110735014 0.022283807 0.05235245 0.18537295 0.035497777 0.095340736 -0.082028665 0.050677482
0.082096055 -0.08088172 -0.06856952 -0.17158246 0.105574615 -0.009174804 0.03504815 0.11214831
-0.11252113 -0.07946543 -0.0032282954 0.18413773 -0.056597836 0.03250197 0.04961911 0.0902675
0.14384982 -0.021826133 -0.0060219816 0.100944005 0.029253103 0.076113194 0.20522623 -0.044389766
-0.08974774 -0.12845093 0.051718418 -0.2278371 0.10397044 0.06052187 0.010421472 0.11249895
-0.10273008 0.007011941 0.13173923 -0.054938473 -0.039786175 -0.037842184 -0.0065553333 -0.007873415
0.07809363 -0.02895038 -0.10147694 0.04888429 -0.082813375 -0.069451205 0.10792057 0.20022172
-0.10556384 -0.09596162 -0.050463267 0.039337855 -0.04877577 0.10192583 -0.07383121 -0.075445995
0.0016529338 -0.006692645 0.024748325 0.18865353 0.020034844 -0.043223474 -0.08074518 -0.10951537
-0.030902462 0.07545777 -0.114003144 -0.021076133 -0.10621313 0.011046383 -0.047008224 -0.0030710672
0.04905288 0.14320847 -0.014262372 -0.20410004 0.14706479 0.09439295 0.15845351 -0.07725084
0.044837296 0.13046369 0.15724382 -0.021065632 -0.00048205373 0.036906898 -0.012764242 0.14734522
-0.08291979 -0.044930857 0.039340116 -0.16962019 -0.080255635 -0.12019524 0.01604865 0.15461925
-0.06108807 -0.037199322 -0.12677923 0.046989318 0.17076093 0.11301348 0.032398697 0.05910881
-0.10390426 -0.08846396 -0.0067331307 -0.038495008 -0.10334182 0.074819446 0.064135015 0.00028385542
0.08726342 0.1900389 0.10602437 0.060569193 0.057671476 0.090847224 -0.043926943 -0.023069277
00000000: 5a0d e7bd 9dc5 303c f1bd fa3c 4a16 843c
00000010: cbb3 db3b aee4 6a3d a07f 2d3c 097c e33c
00000020: 04e5 3dbd 4f84 423c 417d a5bd bbd6 4c3e
00000030: 8190 ecbd 4b84 9d3c 9a6f cbbd b28d 51bc
00000040: 6db9 dcbc 4b9d 233e 0e5d 82bc 1d2b dabd
00000050: 5127 6dbd b5a2 cebb f197 833d 441c 99bd
00000060: 3f75 c4bd 3290 06bd 1bf1 ae3c aeb7 48be
00000070: 16f3 06be 18cf da3c 19f0 0bbd de37 9e3b
00000080: 07e7 b53b e393 9bbd e304 75bd e0cd 38bd
00000090: 3652 a9bd 61b9 30bd 8384 04be 7d49 f6bd
000000a0: 2da2 50bd 71ed a43c fd2b b0bd 8ccb 11be
000000b0: 393b 1c3e 493b 093e 25d7 9bbc 27eb e3bd
000000c0: 0188 1fbc d55f a8bd 0044 1bbe 1121 103c
000000d0: 0eec 3f3d 5259 a5bd ad68 86bc c7c6 813e
000000e0: 76c3 3ebc bbbb f63d 19e6 eebc 9b0b 97bc
000000f0: 8fa3 aa3d 369c 173e 0eb7 7dbd 05ff 84bc
00000100: c735 01be c891 e7bd eede cabc 4010 133c
00000110: b99f 1f3d e423 38bd f852 ea3d 6c69 4d3e
00000120: ea4b 61be c06d 4bbe fa89 62be 6b5c 543d
00000130: 8748 73bc ef65 df3d b387 25bd 5af4 a03b
00000140: e0a0 2bbd 6d41 8e3d 9220 c63d 2cd9 e23d
00000150: dfd5 f93d b2d2 5e3d a621 69bd 46e9 713e
00000160: 4d70 013e ec94 03bd e967 86bd c1c0 0ebe
00000170: 06c0 8f3d c137 98bd 814c f13b f755 ffbd
00000180: 3025 8f3c 2d67 433d 59ec e8bd 1af3 c83c
00000190: b09b 223d 4123 403d e374 6b3d e4c8 25be
000001a0: e3d9 eabc 3244 97bd d9e5 6b3d add0 4abd
000001b0: 9903 103d e27d a1bd d4ce 063e 5143 66bd
000001c0: aa91 773c e2ab 8f3d 66e1 e5bd 636f bebd
000001d0: a39e 6a3b ff65 b9bd 3615 96bb 7a0e f3bd
000001e0: eb18 023e 7655 13bd ef64 80bc 6959 3bbe
000001f0: 14dd 57bd 9709 25bd 6668 b0bd f2cd 96bc
00000200: 0ac9 e2bd 888c b63c 866f 563d 68d2 3d3e
00000210: 1e66 113d 0142 c33d a5fe a7bd 3193 4f3d
00000220: fa21 a83d 51a5 a5bd 2d6e 8cbd 50b3 2fbe
00000230: 8137 d83d eb51 16bc a68e 0f3d 03ae e53d
00000240: 7a71 e6bd c5be a2bd cf91 53bb 9a8e 3c3e
00000250: 22d3 67bd c920 053d 683d 4b3d 2bde b83d
00000260: 5e4d 133e b8cc b2bc 0b54 c5bb bbbb ce3d
00000270: 34a4 ef3c 3ce1 9b3d d326 523e 0bd2 35bd
00000280: aacd b7bd a488 03be b1d6 533d 214e 69be
00000290: 74ee d43d c8e5 773d d2be 2a3c d965 e63d
000002a0: 2664 d2bd 6dc4 e53b a6e6 063e 2a07 61bd
000002b0: d4f6 22bd 6800 1bbd 1fce d6bb 7fff 00bc
000002c0: 8eef 9f3d 5929 edbc 24d3 cfbd e53a 483d
000002d0: 0f9a a9bd 6f3c 8ebd 7605 dd3d ec06 4d3e
000002e0: db31 d8bd 8787 c4bd 92b2 4ebd bb20 213d
000002f0: 1ac9 47bd 7dbe d03d d134 97bd 6e83 9abd
00000300: 41a7 d83a fa4d dbbb 00bd ca3c 642e 413e
00000310: 1d20 a43c 190b 31bd bb5d a5bd 9849 e0bd
00000320: 2927 fdbc 9a89 9a3d 7b7a e9bd dba7 acbc
00000330: 4586 d9bd e3fb 343c b28b 40bd f543 49bb
00000340: aceb 483d 3ea5 123e b9ac 69bc 9aff 50be
00000350: 2798 163e 1751 c13d a341 223e b035 9ebd
00000360: 50a7 373d 4698 053e 8604 213e d591 acbc
00000370: 28bc fcb9 b02b 173d 1c21 51bc aae1 163e
00000380: dad1 a9bd 6b09 38bd 1a23 213d eab0 2dbe
00000390: 115d a4bd ec28 f6bd 7578 833c 8254 1e3e
000003a0: 7c37 7abd 515e 18bd 6ad2 01be df77 403d
000003b0: f4db 2e3e 9d73 e73d 7fb4 043d 141c 723d
000003c0: c2cb d4bd 982c b5bd 98a1 dcbb f1ac 1dbd
000003d0: e0a4 d3bd f03a 993d 3859 833d 6ed2 9439
000003e0: 2ab7 b23d 8f99 423e 4e23 d93d 6717 783d
000003f0: ed38 6c3d 1c0e ba3d bdec 33bd c8fb bcbc

gru.weight_hh_l0 f4 [192, 64]
0.06652376 -0.061069608 0.024410397 0.11918211 -0.11884861 0.02022639 0.043964654 0.104052246
0.024191141 0.07949029 0.03752418 0.013483271 0.012727156 0.0432678 -0.11502464 -0.10284583
0.11887647 -0.07019207 -0.009566605 0.0139267 0.11149146 -0.011871308 -0.105486766 -0.10092403
0.11395459 -0.003766477 0.10027999 -0.02919145 0.010413274 -0.1061303 -0.10750198 -0.008300304
0.097804144 0.02827701 0.10477191 0.03787197 0.10197696 -0.024029389 0.035913825 -0.014167756
0.043367952 0.040636137 0.01566565 0.049788907 -0.07769449 0.10313116 -0.035892457 0.04177025
-0.075079754 0.022853166 0.097176075 0.12092647 0.090051174 0.033986866 -0.06333019 -0.07913144
-0.047032267 -0.099430025 -0.06837615 0.07593107 0.10166773 -0.003740564 0.10637674 -0.034783453
0.099730924 0.09373729 -0.06402986 0.1211181 0.065613404 -0.09418385 -0.08518995 -0.12050106
0.01500684 -0.11419839 0.02934286 -0.023109108 0.11099757 -0.0024059266 0.1046039 0.01809077
0.07560781 0.009881213 -0.019020468 0.027502567 -0.007361695 0.10874294 0.045428067 0.032152966
-0.02330868 -0.09473908 0.08780098 0.10308984 0.04399571 -0.03306867 0.046493948 -0.056199
0.10766967 -0.09160349 -0.05204022 0.041527346 -0.01094982 -0.06927341 0.026535645 -0.04570435
0.11252019 -0.022396162 0.039619073 -0.10476324 0.091204494 0.03919567 0.099761024 -0.041288003
-0.100718334 0.09481716 0.0028318465 -0.09137745 0.080449775 0.026204169 0.07988301 0.10089727
0.078841 -0.086548015 -0.019362152 0.12399639 -0.019384295 0.11076027 -0.010255009 -0.03801693
-0.0027310997 -0.03123431 0.0063304156 -0.020049125 0.0018401742 0.035193786 0.015699208 0.10801567
-0.106845975 -0.06956631 -0.06315464 0.07567917 -0.003121227 -0.09702301 0.05014074 -0.07586512
0.028088912 -0.062263355 0.09029581 0.022452936 0.0168266 -0.12298493 0.023768708 0.06945151
0.07130459 0.107544035 -0.040605202 0.12060282 0.07427113 0.082062155 0.091226816 -0.024931207
0.10847549 -0.081198275 -0.06712489 0.09003922 -0.0443722 0.12423481 -0.10776807 -0.06715569
-0.048431337 0.0035108328 0.05251044 -0.12288456 -0.018223196 -0.053895116 -0.0081284195 -0.052593768
0.049488828 -0.07176009 0.021684408 -0.10154301 0.059691668 0.033328623 0.073461354 -0.057936415
0.05202897 0.079104364 0.06473328 0.06025721 0.056694716 0.0840669 0.046573386 0.020316347
-0.08368358 0.12419188 0.023847714 -0.055853784 -0.090016365 0.018930703 -0.010542288 -0.037989736
0.10760237 -0.11344142 -0.01440382 -0.050501212 0.045191333 0.06291932 -0.09842794 -0.12310192
-0.10756461 -0.048685223 -0.089785144 -0.12372917 -0.048864022 0.00850147 0.018844947 0.06559916
0.053578556 0.12259765 0.027977824 -0.010141283 -0.11657494 -0.11030275 0.02727136 -0.09804568
-0.07654974 0.120346844 -0.029977709 -0.10038474 -0.10821219 0.038298264 -0.03790681 0.12101191
-0.091901675 -0.0073200166 -0.006245956 -0.08759044 0.091780275 -0.030728921 -0.06424841 0.07475069
0.080594525 -0.04664433 0.0871833 0.12206745 -0.002002731 -0.04108733 0.12398568 -0.091404036
-0.0758445 0.040748924 0.053963155 0.11477785 0.08101109 0.027112722 -0.09597987 -0.060652137
00000000: 9c3d 883d 2024 7abd 50f8 c73c c015 f43d
00000010: e666 f3bd d0b1 a53c 4814 343d 5819 d53d
00000020: 802c c63c cecb a23d f4b2 193d f0e8 5c3c
00000030: 9085 503c 9439 313d 0a92 ebbd d6a0 d2bd
00000040: 8275 f33d dcc0 8fbd 40bd 1cbc d02c 643c
00000050: a255 e43d e07f 42bc 7209 d8bd 42b1 cebd
00000060: 0661 e93d 00d7 76bb 985f cd3d e822 efbc
00000070: 709c 2a3c d85a d9bd 002a dcbd 00fe 07bc
00000080: 8a4d c83d 30a5 e73c a892 d63d a41f 1b3d
00000090: 4cd9 d03d 48d9 c4bc 601a 133d e01f 68bc
000000a0: 98a2 313d 1472 263d 4055 803c 74ef 4b3d
000000b0: 4a1e 9fbd 6e36 d33d f803 13bd 4817 2b3d
000000c0: 6ac3 99bd 9036 bb3c 4004 c73d 4ca8 f73d
000000d0: c06c b83d d035 0b3d 42b3 81bd aa0f a2bd
000000e0: e8a4 40bd f8a1 cbbd cc08 8cbd c081 9b3d
000000f0: 2c37 d03d 4024 75bb 0cdc d93d 1879 0ebd
00000100: ba3f cc3d 56f9 bf3d 1622 83bd c40c f83d
00000110: 5260 863d 76e3 c0bd 1278 aebd 42c9 f6bd
00000120: 40df 753c d8e0 e9bd 7060 f03c 504f bdbc
00000130: b252 e33d c0ac 1dbb 923a d63d 1833 943c
00000140: 44d8 9a3d d0e4 213c d0d0 9bbc 104d e13c
00000150: 603a f1bb 9eb4 de3d c812 3a3d d4b2 033d
00000160: d8f1 bebc 9006 c2bd 00d1 b33d c420 d33d
00000170: d834 343d 0473 07bd 7070 3e3d ec30 66bd
00000180: ea81 dc3d 9c9a bbbd 2028 55bd 9418 2a3d
00000190: e066 33bc 38df 8dbd 4861 d93c 7c34 3bbd
000001a0: fc70 e63d 2878 b7bc 9c47 223d 1c8e d6bd
000001b0: 6cc9 ba3d a48b 203d 824f cc3d 9c1d 29bd
000001c0: 6a45 cebd 802f c23d 8096 393b 1a24 bbbd
000001d0: dac2 a43d 20aa d63c b499 a33d 3aa3 ce3d
000001e0: 6477 a13d 1640 b1bd 609d 9ebc d2f1 fd3d
000001f0: d0cb 9ebc 48d6 e23d a004 28bc a4b7 1bbd
00000200: 40fc 32bb 18df ffbc 606f cf3b 103e a4bc
00000210: 0032 f13a 5c27 103d a09b 803c 5237 dd3d
00000220: 10d2 dabd c878 8ebd 3857 81bd aefd 9a3d
00000230: 808d 4cbb 00b4 c6bd 6060 4d3d 2c5f 9bbd
00000240: b81a e63c dc07 7fbd 02ed b83d 38ef b73c
00000250: f0d7 893c 86df fbbd 98b6 c23c 983c 8e3d
00000260: 2408 923d 0c40 dc3d a451 26bd 9cfe f63d
00000270: 761b 983d 3410 a83d 20d5 ba3d 883c ccbc
00000280: 6628 de3d 484b a6bd c678 89bd 7c66 b83d
00000290: a0bf 35bd d26e fe3d 82b5 dcbd ec88 89bd
000002a0: f05f 46bd 0016 663b 3015 573d e6aa fbbd
000002b0: d048 95bc 20c1 5cbd 102d 05bc 906c 57bd
000002c0: ccb4 4a3d f4f6 92bd 80a3 b13c c8f5 cfbd
000002d0: 407f 743d 9883 083d e872 963d bc4e 6dbd
000002e0: 541c 553d 7801 a23d e292 843d 44d0 763d
000002f0: b838 683d 442b ac3d bcc3 3e3d 786e a63c
00000300: 4c62 abbd 5058 fe3d 485c c33c f0c6 64bd
00000310: 805a b8bd 9014 9b3c 90b9 2cbc 209b 1bbd
00000320: a25e dc3d fa53 e8bd 00fe 6bbc 5cda 4ebd
00000330: 8c1a 393d d8db 803d 9694 c9bd dc1c fcbd
00000340: d64a dcbd 286a 47bd 46e1 b7bd b865 fdbd
00000350: a425 48bd c049 0b3c b860 9a3c da58 863d
00000360: 3075 5b3d 7a14 fb3d c031 e53c a027 26bc
00000370: d8be eebd 68e6 e1bd 3068 df3c 2ccc c8bd
00000380: 1cc6 9cbd 6878 f63d d093 f5bc 8496 cdbd
00000390: 5a9e ddbd a4de 1c3d 2c44 1bbd 18d5 f73d
000003a0: f236 bcbd c0dc efbb e0aa ccbb 9e62 b3bd
000003b0: 4cf7 bb3d 38bb fbbc ac94 83bd e416 993d
000003c0: be0e a53d 200e 3fbd 288d b23d 80fe f93d
000003d0: 4040 03bb 304b 28bd 34ec fd3d 0a32 bbbd
000003e0: 5c54 9bbd 58e8 263d 7808 5d3d a610 eb3d
000003f0: 24e9 a53d 801b de3c 1891 c4bd 606e 78bd

gru.bias_ih_l0 f4 [192]
0.013276674 0.02111977 -0.14144127 0.100702256 0.09229063 0.07263815 0.013581008 0.060508043
0.03356925 -0.017236322 0.054835625 0.11912961 -0.052095305 0.066219546 0.10315138 0.074406594
-0.1076602 0.10470074 -0.23909537 -0.11558351 0.06818173 0.055204492 0.11827146 -0.06958714
-0.11899382 0.109853275 0.04723253 0.13046211 -0.052449293 -0.06770956 0.15253617 -0.054090977
0.019490829 -0.10823161 0.008761026 0.073150605 -0.12872088 -0.11293087 0.13955761 0.2236175
0.10435111 0.010765299 0.072620384 -0.088829786 -0.0658985 0.0917319 -0.028756607 0.05926453
0.08161047 -0.13939703 -0.05473639 -0.16511454 0.07234522 0.11896269 0.02607859 0.05915709
-0.101203874 0.061723884 0.039188545 0.08126241 0.026703045 -0.001636294 0.13317418 0.008483285
-0.18732937 -0.09227017 -0.003937626 -0.032870106 0.16396251 0.1603128 0.08064974 -0.09103183
-0.10230522 0.042111553 -0.03483925 0.041077323 -0.010520605 0.09884829 0.012514556 0.15480052
-0.12996891 0.039757226 0.04015915 -0.11783779 -0.14745346 0.066215895 -0.18126959 0.009422593
0.008239902 0.003320629 0.018785225 -0.071146704 0.20180172 -0.0428114 -0.16954264 -0.06647596
0.14817764 -0.025106993 0.06836126 -0.11468897 0.068708055 -0.14393894 -0.039145324 -0.07516499
0.04683693 -0.0009857289 0.06724263 -0.014361398 -0.10564612 0.058373038 0.04624048 -0.0026170148
-0.16530645 0.24155793 0.06239664 -0.17203507 0.022370776 -0.0019885383 -0.04686369 0.07097648
0.1642767 0.1137236 -0.008830301 -0.055249896 -0.103336826 -0.1202721 -0.013700937 -0.035822228
0.00079398626 -0.1089903 -0.1425764 -0.077871576 0.08227168 0.175298 0.0003186653 0.041597378
0.14595203 -0.037258435 -0.14162166 0.10832073 -0.149318 0.17301357 0.0029285173 0.038405575
0.11004191 0.18261713 0.21472989 -0.013522162 -0.0008109431 0.089203924 -0.07173313 -0.06415397
-0.06927072 -0.16517422 0.15160803 0.040766295 0.1232912 0.11914527 0.13468927 0.026143996
-0.17531486 -0.055309534 -0.012530906 -0.0019418088 -0.023977851 0.023828195 0.15390527 0.05534529
-0.025837382 0.013949345 -0.11936841 0.029258294 0.117292814 -0.14716856 0.09135147 0.19698709
-0.01695094 -0.055656303 0.076868884 -0.016418295 0.13567765 0.19861734 0.09105469 0.09555032
-0.015562017 0.068342574 0.062291637 -0.13935503 0.024131104 0.16423334 0.07245096 -0.034680486
00000000: 6886 593c 5e03 ad3c fbd5 10be fc3c ce3d
00000010: df02 bd3d 4fc3 943d e082 5e3c 48d7 773d
00000020: e97f 093d 3033 8dbc 529b 603d 3afa f33d
00000030: e361 55bd 1d9e 873d 0841 d33d 7c62 983d
00000040: f37c dcbd 576d d63d 6bd5 74be 0cb7 ecbd
00000050: dda2 8b3d 1b1e 623d 4f38 f23d b483 8ebd
00000060: 08b3 f3bd c1fa e03d e676 413d dc97 053e
00000070: 12d5 56bd 4fab 8abd 7132 1c3e 808e 5dbd
00000080: 3bab 9f3c 89a8 ddbd 688a 0f3c fccf 953d
00000090: 68cf 03be 4d48 e7bd 31e8 0e3e fcfb 643e
000000a0: 09b6 d53d f060 303c ffb9 943d 64ec b5bd
000000b0: cbf5 86bd efdd bb3d fa92 ebbc 5dbf 723d
000000c0: 6423 a73d 18be 0ebe 4433 60bd c913 29be
000000d0: bb29 943d b6a2 f33d c4a2 d53c b44e 723d
000000e0: fa43 cfbd 2fd2 7c3d 2b84 203d e86c a63d
000000f0: 58c0 da3c ea78 d6ba d05e 083e 7afd 0a3c
00000100: 45d3 3fbe 25f8 bcbd 3307 81bb cea2 06bd
00000110: cae5 273e 0a29 243e b12b a53d e56e babd
00000120: 6685 d1bd 2a7d 2c3d 9ab3 0ebd b240 283d
00000130: 9e5e 2cbc f970 ca3d da09 4d3c 0784 1e3e
00000140: 9216 05be 79d8 223d ec7d 243d f054 f1bd
00000150: 0afe 16be 339c 873d bc9e 39be 3861 1a3c
00000160: a700 073c e99e 593b 79e3 993c 5db5 91bd
00000170: 1ca5 4e3e 025b 2fbd 969c 2dbe 8c24 88bd
00000180: e1bb 173e 2ead cdbc fd00 8c3d 0de2 eabd
00000190: cfb6 8c3d bb64 13be d956 20bd 1af0 99bd
000001a0: 15d8 3f3d 9333 81ba 81b6 893d 124c 6bbc
000001b0: fe5c d8bd 9118 6f3d a866 3d3d 3982 2bbb
000001c0: 1846 29be f65a 773e 9f93 7f3d f629 30be
000001d0: eb42 b73c 2352 02bb 24f4 3fbd 1e5c 913d
000001e0: 2738 283e ebe7 e83d f8ac 10bc b74d 62bd
000001f0: 42a2 d3bd 3851 f6bd e579 60bc 54ba 12bd
00000200: 8423 503a 4e36 dfbd 8cff 11be 227b 9fbd
00000210: 0e7e a83d 5281 333e 8812 a739 0362 2a3d
00000220: 7374 153e 4d9c 18bd 4505 11be 42d7 dd3d
00000230: d1e6 18be 782a 313e 5eec 3f3b 2a4f 1d3d
00000240: a75d e13d fcff 3a3e 27e2 5b3e 0f8c 5dbc
00000250: 7895 54ba 8cb0 b63d d2e8 92bd 2863 83bd
00000260: cfdd 8dbd 6e23 29be 233f 1b3e 8ffa 263d
00000270: 1980 fc3d 6f02 f43d fceb 093e ef2b d63c
00000280: bd85 33be 408c 62bd 6e4e 4dbc 4b84 feba
00000290: 336d c4bc 5933 c33c 5899 1d3e beb1 623d
000002a0: eba8 d3bc cb8b 643c 6d77 f4bd 17af ef3c
000002b0: 3737 f03d 5bb3 16be 7b16 bb3d fcb6 493e
000002c0: b3dc 8abc ddf7 63bd 6f6d 9d3d a97f 86bc
000002d0: 15ef 0a3e 5862 4b3e e27a ba3d e3af c33d
000002e0: d5f7 7ebc 31f7 8b3d 8425 7f3d 16b3 0ebe
000002f0: 98ae c53c c92c 283e 2b61 943d 200d 0ebd

gru.bias_hh_l0 f4 [192]
-0.12383001 -0.11880791 0.030010622 -0.12814052 -0.02500233 -0.014434371 -0.020279558 0.095816344
-0.115882225 -0.12417066 -0.024472008 0.09547517 0.0158776 -0.051413495 -0.025423337 0.032380946
0.11696812 -0.09682902 -0.26847753 -0.0020842943 0.023582365 -0.030204885 0.063327976 0.0039520483
-0.09384307 0.04907265 0.019124145 0.043446664 -0.13716565 -0.080960505 0.17993058 -0.081758365
0.0038200566 -0.019217804 -0.07866378 0.14838672 -0.16123863 -0.08872826 -0.025726536 0.20006782
-0.13566147 0.17326878 0.026202183 0.05867053 -0.079774655 0.018365594 -0.097258635 0.010378825
0.12793516 -0.119840585 0.08419127 -0.18152295 0.017872665 -0.07011609 0.14949887 -0.002564286
-0.07969071 -0.009411391 0.019155579 0.059891976 -0.06473825 -0.043210555 0.2422484 0.017655596
0.019396028 0.020976126 -0.03399489 0.07446863 0.057483822 0.046841048 -0.046043772 -0.11571628
-0.20678939 0.0820661 0.031622995 0.047097918 -0.0062543163 0.08731636 -0.060617857 0.014313601
-0.058361348 0.19742242 0.032527186 -0.04901263 -0.124971524 0.19037841 -0.121318854 -0.03250229
-0.15272841 0.13877754 -0.045027927 -0.18309085 0.16460238 -0.115709625 -0.05448399 -0.05758895
0.05121151 0.14697316 0.07749889 -0.19269927 0.073146045 -0.20764075 -0.06118542 0.0784221
-0.062398873 -0.16042705 0.13507758 0.1278227 0.030652013 -0.047071483 -0.033016004 0.0015244456
-0.12932576 0.09550947 -0.17737228 0.03385284 0.0023478905 0.08290864 -0.046956077 0.0553784
-0.012294962 0.033657145 0.1966535 -0.15794136 -0.05317472 -0.12067159 -0.025352838 0.042587012
-0.024228893 0.061064925 0.057544548 -0.023843257 -0.18855083 0.18269755 -0.136596 0.016258148
0.028249405 0.044054393 -0.024821185 0.16136812 0.015538011 0.14419039 -0.13852382 0.08440058
0.0345741 0.117276505 -0.28551528 -0.09968904 -0.053189013 -0.15813029 0.12620097 0.039473284
0.07848302 -0.13506022 -0.13808523 -0.060625114 0.013887174 -0.0296404 0.18560782 -0.011108182
-0.15627906 0.0032186273 -0.07513024 -0.15909433 -0.07106635 -0.017492743 0.09090785 0.12932736
-0.08021523 -0.11980773 -0.05593292 -0.04496953 -0.014748575 -0.16864792 -0.05841696 -0.030228727
-0.15568233 -0.041970342 0.07715195 -0.0152885225 0.12367819 0.102375254 0.13427836 -0.05751834
0.042578865 -0.063545145 0.05474786 -0.18437803 -0.0920065 -0.044819746 0.15000892 -0.111950055
00000000: 979a fdbd 9051 f3bd d6d8 f53c 4537 03be
00000010: b0d1 ccbc 247e 6cbc 5121 a6bc 5c3b c43d
00000020: a953 edbd 304d febd 8579 c8bc 7c88 c33d
00000030: be11 823c f596 52bd 9a44 d0bc e2a1 043d
00000040: fb8c ef3d 4b4e c6bd e375 89be a898 08bb
00000050: ce2f c13c 3c70 f7bc 19b2 813d 2f80 813b
00000060: cc30 c0bd 6700 493d 3daa 9c3c 21f5 313d
00000070: 2775 0cbe 9fce a5bd b93f 383e ee70 a7bd
00000080: ea59 7a3b a86e 9dbc 7a1a a1bd b0f2 173e
00000090: bd1b 25be 29b7 b5bd 75c0 d2bc 94de 4c3e
000000a0: d7ea 0abe 5f6d 313e f6a5 d63c 8250 703d
000000b0: e560 a3bd 7173 963c 892f c7bd f20b 2a3c
000000c0: 6f01 033e fb6e f5bd 796c ac3d 27e1 39be
000000d0: b269 923c 0699 8fbd 3b16 193e 950d 28bb
000000e0: e234 a3bd 3c32 1abc 29ec 9c3c 4a51 753d
000000f0: 7d95 84bd 8dfd 30bd f70f 783e 78a2 903c
00000100: 6be4 9e3c 20d6 ab3c 3a3e 0bbd 0283 983d
00000110: 2874 6b3d 66dc 3f3d 6598 3cbd a8fc ecbd
00000120: 99c0 53be 4512 a83d 1d87 013d bfe9 403d
00000130: 02f1 ccbb ebd2 b23d 6e4a 78bd 9883 6a3c
00000140: 4f0c 6fbd 1a29 4a3e 3a3b 053d 78c1 48bd
00000150: 12f1 ffbd 8ff2 423e 0576 f8bd 1f21 05bd
00000160: d664 1cbe b31b 0e3e 346f 38bd 2b7c 3bbe
00000170: 878d 283e 2bf9 ecbd 9b2a 5fbd 64e2 6bbd
00000180: 29c3 513d 2280 163e bdb7 9e3d f552 45be
00000190: 98cd 953d c79f 54be 909d 7abd c49b a03d
000001a0: f695 7fbd fd46 24be c751 0a3e f4e3 023e
000001b0: ee19 fb3c 07ce 40bd ca3b 07bd e8cf c73a
000001c0: f96d 04be 789a c33d 14a1 35be 47a9 0a3d
000001d0: 11df 193b 01cc a93d 0455 40bd 76d4 623d
000001e0: cf70 49bc 13dc 093d 895f 493e 61bb 21be
000001f0: bccd 59bd ab22 f7bd c1b0 cfbc b86f 2e3d
00000200: ac7b c6bc 371f 7a3d d5b3 6b3d ef52 c3bc
00000210: 7813 41be 1115 3b3e d2df 0bbe cf2f 853c
00000220: 4c6b e73c 6172 343d cc55 cbbc af3d 253e
00000230: 2493 7e3c a5a6 133e 30d9 0dbe 36da ac3d
00000240: 929d 0d3d aa2e f03d 0f2f 92be c429 ccbd
00000250: b9dc 59bd e8ec 21be d43a 013e bdae 213d
00000260: b5bb a03d 3a4d 0abe 3766 0dbe 0a52 78bd
00000270: 0887 633c 6dd0 f2bc fa0f 3e3e 18ff 35bc
00000280: 9e07 20be 9bef 523b e2dd 99bd a0e9 22be
00000290: 3c8b 91bd f14c 8fbc e52d ba3d 646e 043e
000002a0: e247 a4bd c15d f5bd eb19 65bd f831 38bd
000002b0: 02a4 71bc 0ab2 2cbe 9f46 6fbd 3ca2 f7bc
000002c0: 306b 1fbe 18e9 2bbd d701 9e3d b67c 7abc
000002d0: fe4a fd3d 1eaa d13d 4480 093e 5a98 6bbd
000002e0: 2d67 2e3d f523 82bd 4b3f 603d 98cd 3cbe
000002f0: e76d bcbd e994 37bd f09b 193e 1246 e5bd

gru.weight_ih_l1 f4 [192, 64]
0.08682147 -0.07187776 -0.0027372171 -0.15540427 -0.013205093 0.0029005576 0.13912432 0.0646865
-0.07197093 -0.056912184 0.048883773 0.05519025 -0.11430618 0.12497763 -0.015219646 -0.14857455
0.050462607 -0.015310542 0.099943094 0.18855298 -0.024431296 -0.13417917 -0.14514813 -0.076920904
-0.0027949957 0.048397772 -0.14361244 -0.031428542 -0.0810845 -0.056692265 -0.07076238 0.026082093
-0.1569829 0.13475089 0.023249667 -0.15015586 -0.059380684 -0.15494771 0.017892953 -0.024660066
-0.026206946 -0.1773533 -0.02824681 0.17378059 -0.029849848 -0.15065965 -0.060836095 0.09035532
-0.059176378 0.15258598 -0.079137884 0.032343443 -0.0708312 0.022373868 0.087453425 -0.06590844
0.010280428 -0.12655433 0.073658556 -0.047493465 0.06204553 0.08504558 0.20460925 -0.17707737
-0.19854513 0.011728598 -0.0912656 0.014570444 0.03707913 0.16908039 -0.12495798 0.00882666
-0.09171975 0.15917084 0.074703075 0.019047385 0.13085097 -0.13999031 0.17558861 0.11349014
0.114155695 0.064508505 -0.2789934 0.039608948 0.07634997 0.15970346 0.19625004 0.103210896
0.10794182 -0.11260493 0.12748294 0.06760246 0.019883178 -0.13742575 -0.031498868 -0.062105216
0.0895445 -0.07891285 -0.12625411 0.060402185 -0.073705755 0.04341327 -0.07182193 -0.15544103
-0.14113417 0.1645564 0.14844085 0.017652133 0.04145122 0.09305358 0.1270391 0.0043652505
0.10394961 -0.024519535 0.103948995 -0.012263733 0.15410468 -0.09329982 -0.0062148017 0.017113566
0.02224899 0.09848269 -0.04461348 0.1312941 0.022015678 0.04408319 -0.13854031 0.09582067
-0.01564437 -0.16738814 -0.21195678 0.02472572 -0.12963603 -0.03853087 -0.103245944 -0.06359698
0.097885884 0.1250961 0.05911271 -0.0010153005 0.09653424 -0.0058080503 0.119295806 0.081742
0.12722172 -0.06883415 -0.11003077 -0.03621261 0.009841022 0.013132678 -0.028843254 -0.0617486
0.018487733 -0.09517522 0.10882436 0.15681075 0.1208657 0.059944965 0.09407586 0.11841139
0.15042095 -0.1143587 -0.03823612 -0.04240352 0.034582406 0.105767004 -0.050656956 0.030446177
-0.1380447 0.14157704 -0.027330939 -0.09562618 0.19087541 0.16423629 0.060772467 -0.03286554
0.13176656 -0.06922859 0.20204864 -0.00953312 0.048936762 -0.15336469 -0.03948447 0.14665715
-0.061045486 0.035314634 -0.13025849 0.14781518 0.07668302 0.059479903 -0.11479047 0.13717996
-0.19571938 -0.07236911 -0.32003376 -0.0113405315 0.045742452 0.022319451 -0.12336896 -0.035910375
-0.082444265 -0.006068464 0.09347858 -0.01781303 -0.06117582 -0.11554288 0.076381184 0.14972007
0.19174197 -0.023516444 -0.096968696 -0.07485611 -0.0313475 0.06639932 0.117358156 -0.0205777
0.061456565 0.06184989 0.046433955 0.23732534 -0.05676482 0.054190855 0.0057593817 0.031797644
0.16810992 -0.06888654 -0.10236901 -0.04549735 0.054063167 -0.05166062 -0.024896273 -0.14754704
-0.10029916 -0.03413784 0.17165147 -0.014433037 0.045935858 -0.010355297 -0.05499878 -0.09823719
0.15559871 -0.0050178175 0.03842673 0.16352023 0.1862175 0.028173296 -0.03383623 0.024130384
-0.049770035 0.049413525 0.064916454 -0.02368257 -0.016551081 -0.1376982 -0.16397388 0.06455947
00000000: 74cf b13d a634 93bd e262 33bb 4c22 1fbe
00000010: 2d5a 58bc 4817 3e3b 9b76 0e3e 5b7a 843d
00000020: 7f65 93bd c01c 69bd 5a3a 483d 2c0f 623d
00000030: 5c19 eabd 46f4 ff3d d25b 79bc ed23 18be
00000040: e1b1 4e3d 11d9 7abc f7ae cc3d 0814 413e
00000050: 2424 c8bc 4466 09be b6a1 14be b588 9dbd
00000060: 3f2c 37bb be3c 463d 240f 13be 37bb 00bd
00000070: a10f a6bd 2636 68bd deeb 90bd 1daa d53c
00000080: 20c0 20be 23fc 093e 1676 be3c 75c2 19be
00000090: 2939 73bd 9daa 1ebe 3e94 923c e803 cabc
000000a0: f3af d6bc 1a9c 35be db65 e7bc 8af3 313e
000000b0: ab87 f4bc 8646 1abe 452f 79bd 360c b93d
000000c0: ee62 72bd 803f 1c3e 0b13 a2bd 8f7a 043d
000000d0: f30f 91bd 6749 b73c c81a b33d 01fb 86bd
000000e0: 3e6f 283c 7597 01be 4cda 963d 8288 42bd
000000f0: 7423 7e3d 612c ae3d 1685 513e c553 35be
00000100: 6a4f 4bbe 4e29 403c 75e9 babd dfb8 6e3c
00000110: 49e0 173d 6923 2d3e f8e9 ffbd b29d 103c
00000120: 90d7 bbbd aefd 223e edfd 983d 4309 9c3c
00000130: ccfd 053e 9f59 0fbe 80cd 333e 856d e83d
00000140: 76ca e93d 091d 843d 39d8 8ebe fe3c 223d
00000150: 605d 9c3d 4e89 233e c5f5 483e 3c60 d33d
00000160: 9a10 dd3d 6a9d e6bd e38a 023e 2973 8a3d
00000170: 0ce2 a23c 56b9 0cbe f504 01bd 0a62 7ebd
00000180: 1b63 b73d 0f9d a1bd c248 01be 4868 773d
00000190: 0bf3 96bd 1dd2 313d 6017 93bd ef2b 1fbe
000001a0: 7a85 10be 7981 283e e100 183e 359b 903c
000001b0: c1c8 293d e092 be3d 8a16 023e 600a 8f3b
000001c0: 88e3 d43d 31dd c8bc 36e3 d43d d3ed 48bc
000001d0: 9ecd 1d3e fa13 bfbd 89a5 cbbb c031 8c3c
000001e0: 8443 b63c 4bb1 c93d a0bc 36bd f671 063e
000001f0: 395a b43c 9390 343d 83dd 0dbe a13d c43d
00000200: 9f28 80bc cc67 2bbe 330b 59be 988d ca3c
00000210: 4fbf 04be 8cd2 1dbd 9c72 d3bd 223f 82bd
00000220: 6578 c83d 3119 003e 2b20 723d d513 85ba
00000230: beb3 c53d 7551 bebb 5c51 f43d 5a68 a73d
00000240: 6946 023e ebf8 8cbd d057 e1bd ac53 14bd
00000250: 3d3c 213c 722a 573c b048 ecbc 1aec 7cbd
00000260: 9673 973c 3aeb c2bd 4edf de3d ff92 203e
00000270: 7088 f73d da88 753d d8aa c03d ac81 f23d
00000280: f307 1a3e e534 eabd 7a9d 1cbd 50af 2dbd
00000290: 48a6 0d3d 5f9c d83d ab7d 4fbd 436a f93c
000002a0: 975b 0dbe 92f9 103e 22e5 dfbc a9d7 c3bd
000002b0: d874 433e 8f2d 283e 8dec 783d 049e 06bd
000002c0: d0ed 063e b8c7 8dbd d7e5 4e3e ce30 1cbc
000002d0: ea71 483d a20b 1dbe 78ba 21bd 4b2d 163e
000002e0: d50a 7abd 14a6 103d 7b62 05be dd5c 173e
000002f0: fd0b 9d3d 33a1 733d 4417 ebbd e778 0c3e
00000300: a96a 48be 4236 94bd 77db a3be a3cd 39bc
00000310: 705c 3b3d 48d7 b63c dea8 fcbd c216 13bd
00000320: 8ad8 a8bd f7d9 c6bb b371 bf3d a2ec 91bc
00000330: 7f93 7abd bfa1 ecbd bd6d 9c3d 3850 193e
00000340: 0258 443e 8fa5 c0bc 8697 c6bd 294e 99bd
00000350: 3c66 00bd 5efc 873d 7959 f03d 9192 a8bc
00000360: e1b9 7b3d 4f56 7d3d 8831 3e3d 6a05 733e
00000370: 3a82 68bd 3bf7 5d3d 32b9 bc3b 3f3e 023d
00000380: 0225 2c3e 6314 8dbd d8a6 d1bd 6e5b 3abd
00000390: 5771 5d3d 169a 53bd 45f3 cbbc 9216 17be
000003a0: a569 cdbd 1fd4 0bbd 67c5 2f3e 8b78 6cbc
000003b0: 3d27 3c3d 43a9 29bc 6746 61bd 9430 c9bd
000003c0: 4555 1f3e 816c a4bb 5965 1d3d d971 273e
000003d0: cdaf 3e3e afcb e63c dc97 0abd 15ad c53c
000003e0: aadb 4bbd d665 4a3d ebf2 843d f301 c2bc
000003f0: 2296 87bc c200 0dbe c5e8 27be c137 843d

gru.weight_hh_l1 f4 [192, 64]
0.0041199923 -0.036731213 0.023420572 0.03209859 0.080699265 0.052335322 -0.0028988272 -0.03706409
-0.004777819 0.073924035 0.10569003 0.08479503 -0.048085257 0.06799489 -0.094145104 0.052718088
-0.07447405 0.025400236 -0.109261915 0.12162453 0.070262924 0.041767552 -0.112592876 0.103170425
0.0065324157 0.06698166 -0.12371883 -0.11360392 0.11489649 0.12331846 0.103420064 -0.10158163
-0.0457903 0.04797417 -0.07908286 0.04131946 0.087971926 0.05872497 0.03367357 0.018104091
-0.0035869032 -0.043680236 0.039619 -0.046431184 -0.0007471591 0.11522877 0.090675235 0.052024364
-0.0009836406 -0.09289703 -0.03504771 0.08088815 -0.0698055 -0.030426726 -0.10484752 0.024119735
0.09405097 -0.039844617 -0.06836654 -0.06756945 0.07433614 0.07137491 0.04343079 0.0744393
0.11655626 0.024090484 -0.010988072 -0.08731809 -0.0058294684 -0.047106177 -0.088027075 -0.04502888
-0.05015491 -0.07204166 -0.03269343 0.020580396 0.04849212 -0.0650399 -0.027851492 0.002946347
-0.09004772 -0.00579755 0.0047718734 -0.057242826 0.12089321 -0.05463627 0.1061403 -0.044335246
-0.021385282 -0.09560819 0.12052505 0.10963185 0.09233652 -0.034460917 0.09031662 -0.12467171
-0.049094245 -0.03879176 -0.10543096 0.11777376 0.042191982 -0.071384326 -0.10454728 0.12404019
0.08683574 0.013201177 0.055039912 -0.0581284 0.11234237 -0.07385628 -0.011167303 -0.053669497
0.051042736 0.101765946 0.076574 0.011242598 0.06753707 0.033196136 -0.04099147 0.11045848
-0.032637343 0.018783078 0.07769503 -0.087768614 0.016286433 -0.060823157 0.1047986 -0.111571774
0.059783205 0.118831754 -0.07822606 0.054370105 -0.045753077 -0.029094934 -0.056246713 -0.106263995
-0.014509708 -0.085461825 -0.011946917 -0.12096238 0.085899726 0.08026075 0.033755735 -0.055474535
-0.046134293 0.038757488 0.008031055 -0.016755313 0.057247445 0.10653654 0.020040557 0.10941203
0.10548723 -0.0355756 0.075577855 0.09129059 0.002607271 -0.08919561 0.09184359 -0.09034236
-0.009541601 -0.10271929 -0.024652883 -0.007758975 0.061635375 0.0033911765 -0.10126111 0.030731708
-0.032830954 -0.032789335 0.06617914 -0.013390422 -0.10367456 0.082546145 -0.097396836 -0.04308653
0.116958246 0.10082926 0.00013954937 0.10064958 -0.01030688 -0.111745745 -0.09285347 -0.032186657
-0.073849946 0.0189946 0.10102576 0.078200236 0.0016825348 0.0770648 -0.0914008 -0.023700088
-0.085492164 -0.082813874 -0.04557143 0.0142810345 0.09060575 -0.004138544 -0.03846425 -0.011832848
0.05667603 0.103818774 0.050100267 -0.053532645 -0.07687239 0.040222228 -0.07919893 0.03206317
0.06933947 -0.011808246 -0.09137489 0.06962477 -0.061462775 0.111110345 0.07897766 0.09409034
-0.04388188 0.12120111 0.12065932 -0.032257393 -0.06817314 -0.08586094 0.0322579 0.09227522
-0.013872191 0.074646875 0.0031130165 0.034030378 -0.1087309 0.033600688 0.0824416 0.10915825
-0.059115037 0.03151907 -0.06971313 0.018920556 0.005125299 -0.02096042 0.10470018 -0.07323736
-0.024572596 -0.12224123 -0.0053313226 0.010097772 -0.074487045 0.055415064 0.09226754 0.01779741
-0.008990243 0.051248595 -0.08048715 0.046389014 -0.11655617 -0.12366705 -0.03779146 -0.08370018
00000000: 0001 873b 7873 16bd 80dc bf3c d079 033d
00000010: a845 a53d 905d 563d 40fa 3dbb 84d0 17bd
00000020: 408f 9cbb 7c65 973d 0474 d83d 04a9 ad3d
00000030: 0cf5 44bd e840 8b3d 26cf c0bd ecee 573d
00000040: da85 98bd 2814 d03c b6c4 dfbd 4816 f93d
00000050: 02e6 8f3d 7414 2b3d 1897 e6bd 044b d33d
00000060: e00d d63b ae2d 893d 4c60 fdbd 2ca9 e8bd
00000070: da4e eb3d 648e fc3d e6cd d33d 080a d0bd
00000080: 9c8e 3bbd 9080 443d 32f6 a1bd 983e 293d
00000090: a02a b43d 9889 703d 4ced 093d 084f 943c
000000a0: 4012 6bbb 0cea 32bd 8847 223d a02e 3ebd
000000b0: 00dd 43ba 10fd eb3d f0b3 b93d 8017 553d
000000c0: 80ed 80ba cc40 bebd 308e 0fbd b0a8 a53d
000000d0: 30f6 8ebd 7841 f9bc 4cba d6bd c096 c53c
000000e0: cc9d c03d 1c34 23bd c203 8cbd da61 8abd
000000f0: 8c3d 983d 022d 923d 7ce4 313d a273 983d
00000100: 0cb5 ee3d 6859 c53c 5007 34bc d4d3 b2bd
00000110: 2005 bfbb 68f2 40bd 8a47 b4bd 3470 38bd
00000120: 3c6f 4dbd 948a 93bd 8ce9 05bd 3898 a83c
00000130: ac9f 463d a433 85bd d028 e4bc 8017 413b
00000140: f06a b8bd 60f9 bdbb 605d 9c3b 7477 6abd
00000150: dc96 f73d 48ca 5fbd 1660 d93d e098 35bd
00000160: 3030 afbc 3ace c3bd d6d5 f63d aa86 e03d
00000170: ee1a bd3d e426 0dbd ecf7 b83d e253 ffbd
00000180: 0c17 49bd 1ce4 1ebd 30ec d7bd 5e33 f13d
00000190: 80d1 2c3d f231 92bd e21c d6bd c808 fe3d
000001a0: f0d6 b13d c049 583c 8871 613d 0c18 6ebd
000001b0: c213 e63d f641 97bd 10f7 36bc 8cd4 5bbd
000001c0: 3012 513d aa6a d03d d4d2 9c3d e032 383c
000001d0: e050 8a3d acf8 073d ace6 27bd 0e38 e23d
000001e0: bcae 05bd f8de 993c 921e 9f3d 08c0 b3bd
000001f0: 206b 853c b421 79bd a6a0 d63d be7f e4bd
00000200: 3cdf 743d 105e f33d fc34 a0bd 30b3 5e3d
00000210: 9467 3bbd 8058 eebc f462 66bd f0a0 d9bd
00000220: 20ba 6dbc 9c06 afbd 00bd 43bc 20bb f7bd
00000230: 32ec af3d c05f a43d 7443 0a3d 4439 63bd
00000240: 50f7 3cbd 2cc0 1e3d b094 033c 7042 89bc
00000250: 4c7c 6a3d d42f da3d 182c a43c 6a13 e03d
00000260: b009 d83d b8b7 11bd 90c8 9a3d 90f6 ba3d
00000270: c0de 2a3b 30ac b6bd 7e18 bc3d 6a05 b9bd
00000280: 6054 1cbc 7e5e d2bd d8f4 c9bc 003f febb
00000290: 6075 7c3d 803e 5e3b fc61 cfbd 10c1 fb3c
000002a0: c079 06bd 1c4e 06bd ee88 873d 8063 5bbc
000002b0: 5453 d4bd f40d a93d fe77 c7bd 807b 30bd
000002c0: ce87 ef3d 927f ce3d 0054 1239 5e21 ce3d
000002d0: 30de 28bc f4da e4bd f629 bebd 28d6 03bd
000002e0: a43e 97bd 909a 9b3c 98e6 ce3d 7227 a03d
000002f0: 8088 dc3a 26d4 9d3d 5830 bbbd b026 c2bc
00000300: 8416 afbd 529a a9bd 1ca9 3abd 00fb 693c
00000310: 828f b93d a09c 87bb b08c 1dbd 90de 41bc
00000320: 2025 683d f09e d43d f035 4d3d 0c45 5bbd
00000330: 466f 9dbd 10c0 243d 0c33 a2bd ac54 033d
00000340: da01 8e3d 6077 41bc c222 bbbd 6e97 8e3d
00000350: 64c0 7bbd d28d e33d 0abf a13d 70b2 c03d
00000360: 7cbd 33bd 4a38 f83d 3c1c f73d 5420 04bd
00000370: 5c9e 8bbd dcd7 afbd dc20 043d cafa bc3d
00000380: 3048 63bc 76e0 983d c003 4c3b 7063 0b3d
00000390: 4eae debd e0a0 093d 24d7 a83d 5c8e df3d
000003a0: 9c22 72bd 241a 013d c2c5 8ebd 48ff 9a3c
000003b0: 20f2 a73b 30b5 abbc 0c6d d63d 78fd 95bd
000003c0: 784c c9bc 9c59 fabd 60b2 aebb 2071 253c
000003d0: aa8c 98bd e8fa 623d c4f6 bc3d e0cb 913c
000003e0: d04b 13bc 0cea 513d 72d6 a4bd 6802 3e3d
000003f0: 00b5 eebd 2645 fdbd 38cb 1abd 006b abbd

gru.bias_ih_l1 f4 [192]
-0.028413674 0.051950615 0.07272597 0.11875507 0.18211587 -0.044215415 -0.17313007 -0.08358509
0.14496629 0.005020867 -0.056375433 0.07113605 -0.019845473 -0.039816868 0.07606779 0.15155752
-0.11379952 0.172262 -0.038817912 0.088684835 -0.014973341 0.020005561 -0.04537107 -0.11801573
0.08938349 0.14529033 -0.03872662 0.05211733 -0.086900085 0.057928905 -0.073300675 0.08145927
-0.049836203 0.042765483 0.14996573 0.122851275 0.03389372 0.17143792 -0.14980252 0.06616818
0.15503412 -0.15907331 0.029701114 -0.0010074709 -0.12348659 0.0070670606 0.02783263 -0.009269332
-0.022688724 0.03457412 -0.015125531 -0.016154964 -0.006752388 0.09862395 -0.10168739 0.1138762
-0.08911844 -0.026077922 -0.04214071 -0.10448069 -0.0025135288 0.1476014 -0.12138491 0.10241892
-0.02704836 -0.11813711 -0.228136 -0.14138332 -0.09233398 -0.19015746 -0.036489427 -0.1119646
-0.1513317 -0.19317721 -0.1503238 -0.21855801 -0.063591026 -0.009219424 -0.13209979 -0.0286032
-0.091842145 -0.19829708 -0.03759864 -0.15592247 -0.06719798 -0.028202513 -0.15710983 -0.14233392
-0.2543811 -0.21496332 -0.22693518 -0.1147186 -0.08193547 -0.034802593 -0.2176214 -0.14075549
-0.19893572 -0.065406136 -0.19360873 -0.22033097 -0.06691359 -0.10614085 -0.14214182 -0.03284346
-0.098039515 -0.109595 -0.19907925 -0.12235855 -0.2316807 -0.020949025 -0.007841206 -0.21244588
-0.099618666 -0.14791581 -0.09564997 -0.16428274 -0.10082341 -0.0485376 -0.10422926 -0.1968576
-0.036614317 -0.23134585 -0.085906535 -0.24623156 -0.2247447 -0.19976258 -0.06479893 -0.18351628
0.05060502 -0.029883148 -0.04731961 -0.02196011 0.13169967 0.15745476 -0.0020057599 0.01499508
0.02563886 0.16566063 0.13852888 0.100549996 0.1014152 0.183289 0.033541307 -0.15686703
0.20040609 0.16298577 -0.028163416 0.1006262 0.046203505 -0.009010756 -0.110180356 -0.08869345
0.069365434 -0.03327736 0.009480657 0.065683715 0.08770061 0.11133329 -0.027841207 0.023356238
0.010848783 0.15699221 -0.17736755 -0.023515368 -0.040445354 0.055298876 0.0071262377 0.097279556
0.09424843 0.015457493 0.09203509 0.09565801 -0.046759594 0.060960144 -0.04946513 0.030227637
-0.14309478 -0.013855479 0.18025938 0.023771623 -0.007707167 -0.06359249 -0.0028584576 -0.13488728
-0.060625184 -0.036773898 -0.12958018 0.041604456 0.020707047 0.078469105 -0.027745603 0.017252631
00000000: cbc3 e8bc 2bca 543d 5af1 943d dc35 f33d
00000010: 957c 3a3e 391b 35bd 0249 31be a92e abbd
00000020: 0b72 143e 1686 a43b ede9 66bd c7af 913d
00000030: f992 a2bc 0317 23bd 6ec9 9b3d e531 1b3e
00000040: b90f e9bd 7365 303e 88ff 1ebd 65a0 b53d
00000050: be52 75bc b4e2 a33c 04d7 39bd 3bb2 f1bd
00000060: b10e b73d fdc6 143e ce9f 1ebd fb78 553d
00000070: acf8 b1bd dc46 6d3d aa1e 96bd 1ed4 a63d
00000080: 0c21 4cbd dc2a 2f3d 9e90 193e 7399 fb3d
00000090: 24d4 0a3d 6c8d 2f3e d565 19be 2f83 873d
000000a0: 44c1 1e3e 1de4 22be c04f f33c 1d0d 84ba
000000b0: 8ae6 fcbd cd92 e73b 4101 e43c 65de 17bc
000000c0: b4dd b9bc 989d 0d3d 13d1 77bc 6a57 84bc
000000d0: 2343 ddbb 5afb c93d 7a41 d0bd ed37 e93d
000000e0: bb83 b6bd 5ea1 d5bc bd9b 2cbd f9f9 d5bd
000000f0: 04ba 24bb d224 173e a798 f8bd 03c1 d13d
00000100: 8694 ddbc def1 f1bd 7c9c 69be cac6 10be
00000110: 9919 bdbd a3b8 42be f075 15bd b24d e5bd
00000120: b2f6 1abe 3fd0 45be 7bee 19be accd 5fbe
00000130: 033c 82bd 110d 17bc 2b45 07be 4251 eabc
00000140: bc17 bcbd 640e 4bbe 0801 1abd 24aa 1fbe
00000150: 189f 89bd f508 e7bc 66e1 20be fcbf 11be
00000160: 3d3e 82be 581f 5cbe b261 68be 96f1 eabd
00000170: c9cd a7bd 2a8d 0ebd 25d8 5ebe 3522 10be
00000180: ceb5 4bbe a7f3 85bd 5e41 46be 719e 61be
00000190: fe09 89bd 6060 d9bd a08d 11be dd86 06bd
000001a0: f1c8 c8bd 5873 e0bd 6edb 4bbe 1f97 fabd
000001b0: b53d 6dbe 4a9d abbc 6778 00bc 6a8b 59be
000001c0: df04 ccbd 3e77 17be 22e4 c3bd bc39 28be
000001d0: 817c cebd 5dcf 46bd 2676 d5bd 0a95 49be
000001e0: e5f8 15bd ede5 6cbe c4ef afbd 2024 7cbe
000001f0: 7a23 66be 908e 4cbe 4db5 84bd b1eb 3bbe
00000200: 3647 4f3d 81cd f4bc 35d2 41bd b0e5 b3bc
00000210: 47dc 063e d23b 213e 1173 03bb edad 753c
00000220: 9608 d23c f1a2 293e 84da 0d3e 28ed cd3d
00000230: c6b2 cf3d 1db0 3b3e 9c62 093d c0a1 20be
00000240: 4137 4d3e bee5 263e f7b6 e6bc 1c15 ce3d
00000250: e33f 3d3d daa1 13bc 3da6 e1bd e9a4 b5bd
00000260: 770f 8e3d d74d 08bd c254 1b3c 2f85 863d
00000270: 619c b33d b502 e43d 3e13 e4bc 9555 bf3c
00000280: 18bf 313c 91c2 203e d79f 35be 4da3 c0bc
00000290: 07aa 25bd 1381 623d 3783 e93b 813a c73d
000002a0: 5205 c13d 6d41 7d3c e57c bc3d 59e8 c33d
000002b0: fd86 3fbd 58b1 793d f39b 4abd f39f f73c
000002c0: 7087 12be 1702 63bc ea95 383e b5bc c23c
000002d0: 678c fcbb c83c 82bd f654 3bbb e41f 0abe
000002e0: 1d52 78bd 3aa0 16bd abb0 04be 6f69 2a3d
000002f0: d3a1 a93c 69b4 a03d bf4a e3bc 6455 8d3c

gru.bias_hh_l1 f4 [192]
0.027622344 -0.011182263 0.09309987 0.15442714 0.13168298 0.12138324 -0.08011706 0.03789599
-0.036437012 0.059935473 -0.07067317 0.14787732 0.091004126 -0.094690025 0.1250465 -0.068103306
0.05041603 -0.039182402 0.00050328963 0.079151094 0.07378883 -0.002625532 0.04678618 -0.062361
-0.052148312 -0.03362641 0.01387647 0.038726762 -0.08104291 0.053314276 0.017918615 0.0660359
0.05624228 0.10636498 0.13172816 0.15101631 -0.01798446 0.042729083 -0.03732897 0.1138109
0.08499395 -0.15547855 -0.033019464 0.076722555 -0.033602074 -0.06831969 0.052990273 0.030337177
0.07947159 -0.052289233 -0.035843108 0.022348551 0.021913942 -0.050853677 -0.15540825 0.1648297
-0.067938685 -0.021402862 -0.057801545 -0.15125553 0.1301118 0.06175941 0.016155887 0.17799732
-0.11155579 -0.046426587 -0.12433753 -0.1116646 -0.1845705 -0.14789805 -0.17529623 -0.13811986
-0.19114697 -0.20177521 -0.20191242 -0.121719725 -0.12577787 -0.118318155 -0.20010312 -0.21044442
-0.14702147 -0.17579569 -0.05152011 -0.12368169 -0.1598601 -0.026740255 -0.17354137 -0.04796615
-0.063849434 -0.026409058 -0.17473784 -0.16790892 -0.21127549 -0.04242415 -0.13526349 -0.16879745
-0.22485706 -0.13778135 -0.25157753 -0.17422248 -0.09128368 -0.2065448 -0.19736573 -0.23888807
-0.020489004 -0.12937574 -0.08811522 -0.05606107 -0.23435411 -0.2100005 -0.021100115 -0.15696427
-0.2434201 -0.11506532 -0.087539166 -0.13328452 -0.22825865 -0.22877069 -0.1790832 -0.16351536
-0.2403475 -0.08684651 -0.20112583 -0.119034566 -0.11713331 -0.22138822 -0.20576994 -0.16735144
-0.051174 0.13001898 -0.10248506 -0.15160713 0.19585685 0.17095111 0.055207483 0.019689035
0.1616814 0.062061366 0.0034578242 0.07242267 -0.15421404 0.045819983 0.08126464 -0.08636857
-0.033403136 0.1144038 -0.11491902 0.12632266 0.07494554 0.039983284 0.01529621 0.02687737
0.1579229 0.12579171 0.0162843 0.11967929 -0.0010168708 -0.0726355 -0.04945764 -0.10227612
-0.03640454 0.12652817 -0.16332456 -0.10788981 0.116783425 -0.182943 -0.0063542845 0.08501819
0.10256432 0.062322475 0.10778346 0.19623366 0.011420247 0.01688393 0.0587861 -0.0642731
-0.08704289 -0.050112635 0.038790647 0.13649215 0.085118316 0.16175266 -0.04095499 -0.17544885
0.034038417 -0.052974455 -0.17039876 0.08314165 0.11004108 0.16274655 -0.025303824 0.23006335
00000000: 4148 e23c cf35 37bc 25ab be3d 2622 1e3e
00000010: e7d7 063e c797 f83d 6a14 a4bd d338 1b3d
00000020: fa3e 15bd e67e 753d 18bd 90bd 276d 173e
00000030: 5f60 ba3d d8ec c1bd 310c 003e bf79 8bbd
00000040: 0a81 4e3d ba7d 20bd 32ef 033a f819 a23d
00000050: 991e 973d 1e11 2cbb dea2 3f3d 3f6e 7fbd
00000060: 7899 55bd d9bb 09bd 225a 633c f49f 1e3d
00000070: d3f9 a5bd 1260 5a3d 0fca 923c d43d 873d
00000080: 4e5e 663d e2d5 d93d bfe3 063e 05a4 1a3e
00000090: 2554 93bc b104 2f3d 43e6 18bd b015 e93d
000000a0: 4f11 ae3d c535 1fbe 6b3f 07bd b720 9d3d
000000b0: 54a2 09bd 32eb 8bbd 540c 593d ac85 f83c
000000c0: 00c2 a23d 3c2d 56bd 39d0 12bd 4f14 b73c
000000d0: de84 b33c f24b 50bd 5723 1fbe 1ec9 283e
000000e0: 7023 8bbd 0e55 afbc 50c1 6cbd bbe2 1abe
000000f0: 073c 053e 6ff7 7c3d 5a59 843c ee44 363e
00000100: 5d77 e4bd ce29 3ebd ada4 febd 69b0 e4bd
00000110: 0d00 3dbe 9672 17be db80 33be 4b6f 0dbe
00000120: 08bc 43be 299e 4ebe 21c2 4ebe 3148 f9bd
00000130: eacb 00be ca50 f2bd d5e7 4cbe be7e 57be
00000140: cc8c 16be c903 34be c006 53bd d34c fdbd
00000150: 5eb2 23be 610e dbbc d4b4 31be 2778 44bd
00000160: 7ec3 82bd cf57 d8bc 7aee 32be 51f0 2bbe
00000170: 9a58 58be f2c4 2dbd 8382 0abe 3dd9 2cbe
00000180: ee40 66be 8e16 0dbe c5ce 80be 6167 32be
00000190: f0f2 babd 7b80 53be 3e1a 4abe 139f 74be
000001a0: 8ed8 a7bc 137b 04be c175 b4bd 4ba0 65bd
000001b0: 86fa 6fbe 5f0a 57be 26da acbc 3ebb 20be
000001c0: 1e43 79be 5ea7 ebbd bc47 b3bd bd7b 08be
000001d0: a3bc 69be dd42 6abe 9661 37be 9270 27be
000001e0: a81d 76be 95dc b1bd eef3 4dbe 65c8 f3bd
000001f0: 97e3 efbd 98b3 62be 5bb5 52be 2d5e 2bbe
00000200: d49b 51bd b223 053e b0e3 d1bd e63e 1bbe
00000210: b38e 483e cf0d 2f3e 3e21 623d e64a a13c
00000220: cf8f 253e 0f34 7e3d aa9c 623b 5652 943d
00000230: 49ea 1dbe bcad 3b3d 136e a63d 01e2 b0bd
00000240: bad1 08bd 8a4c ea3d aa5a ebbd ba5a 013e
00000250: 0c7d 993d 83c5 233d f49c 7a3c ee2d dc3c
00000260: 8ab6 213e 8bcf 003e a766 853c 6a1a f53d
00000270: 8648 85ba ecc1 94bd 1894 4abd 2476 d1bd
00000280: ed1c 15bd 9a90 013e 8e3e 27be 55f5 dcbd
00000290: 262c ef3d 6955 3bbe 9a37 d0bb 041e ae3d
000002a0: 3e0d d23d da45 7f3d 93bd dc3d 7af1 483e
000002b0: fd1b 3b3c 2b50 8a3c b2c9 703d 9da1 83bd
000002c0: 8b43 b2bd e842 4dbd f1e2 1e3d 99c4 0b3e
000002d0: 8352 ae3d 7da2 253e 6bc0 27bd dda8 33be
000002e0: de6b 0b3d befb 58bd 037d 2ebe 2b46 aa3d
000002f0: 385d e13d 08a7 263e f749 cfbc ba95 6b3e

fc.weight f4 [1, 64]
1.0356264 1.1587086 -1.0187347 -1.0842391 1.1023515 1.1125733 -1.0629306 -1.1211965
1.078664 1.1271945 1.0496328 1.1016111 -1.0305771 1.0748699 1.0781268 -1.160726
1.1298704 1.063258 -1.0192937 1.0533048 1.109537 -1.0678385 -1.0735575 -1.1046321
1.0306876 1.0419488 -1.0946009 1.0750498 1.0913277 1.0652281 1.0614191 -1.0946163
-1.0811433 1.1425468 -1.0182108 -1.0422912 1.1425139 -1.1346982 1.0497357 1.0530804
1.0484371 -1.1086141 1.1332971 1.0655729 -1.0507548 -1.0962988 -1.116537 1.0867529
-1.0994021 1.1587806 1.0738158 1.1402519 1.1184974 1.1048037 1.1439046 -1.0656964
1.0642022 1.0541433 -1.1355315 -1.0506923 1.122569 1.0360429 -1.0608559 1.062127
00000000: 688f 843f 9050 943f e665 82bf 59c8 8abf
00000010: db19 8d3f cd68 8e3f 1c0e 88bf 5e83 8fbf
00000020: a911 8a3f e947 903f 5e5a 863f 9801 8d3f
00000030: f3e9 83bf 5695 893f 0f00 8a3f ab92 94bf
00000040: 989f 903f d718 883f 3778 82bf b1d2 863f
00000050: 4f05 8e3f efae 88bf 556a 89bf 9664 8dbf
00000060: 92ed 833f 945e 853f e21b 8cbf 3b9b 893f
00000070: a0b0 8b3f 6559 883f 95dc 873f 631c 8cbf
00000080: e762 8abf f93e 923f bb54 82bf cc69 85bf
00000090: e53d 923f ca3d 91bf bd5d 863f 57cb 863f
000000a0: 3033 863f 11e7 8dbf e10f 913f b164 883f
000000b0: 227f 86bf 8553 8cbf afea 8ebf b81a 8b3f
000000c0: 35b9 8cbf ec52 943f cc72 893f c6f3 913f
000000d0: ec2a 8f3f 356a 8d3f 776b 923f bd68 88bf
000000e0: c737 883f 2bee 863f 1959 91bf 167d 86bf
000000f0: 57b0 8f3f 0e9d 843f 20ca 87bf c7f3 873f
